minivilles/pretrained_2players.pt (torch, 507449 bytes, 140 tensors)

first_layer.linear.weight f4 [58, 58]
0	0x3df02549	0.117258616
1	0xbcdd719a	-0.027031709
2	0x3d827b08	0.063711226
3	0xbbcc732e	-0.0062393164
4	0xbd9a8d39	-0.07546467
5	0xbe267f28	-0.16259444
6	0x3acd74d4	0.0015675076
7	0x3d657c77	0.056026902
8	0x3d172067	0.036896136
9	0x3de6efba	0.11276193
10	0x3d71e535	0.05905648
11	0x3e22e3d9	0.1590723
12	0xbe023e5d	-0.12719102
13	0x3d1f57e4	0.03890218
14	0x3d60e93b	0.054909926
15	0x3dba76b0	0.09104669
16	0xbc5d51c9	-0.013508269
17	0x3d3578ba	0.044304587
18	0xbd904d9a	-0.07046051
19	0xbd0695df	-0.032857772
20	0x3d644c39	0.055736754
21	0x3cc02d7b	0.023459187
22	0xbdf15592	-0.11783899
23	0x3d60a9aa	0.054849304
24	0xbd47c0d6	-0.048767887
25	0xbd40c1be	-0.047059767
26	0xbe1859dd	-0.1487803
27	0xbdb33a10	-0.08751309
28	0xbd892dd9	-0.06698198
29	0x3d1bb3dd	0.038013328
30	0xbaf3addc	-0.0018591243
31	0xbca6307f	-0.020286797
32	0x3d0a5728	0.033774525
33	0xbbb37e98	-0.0054777376
34	0xbd49590c	-0.049157187
35	0x3d521324	0.051287785
36	0x3d2c47a8	0.042060524
37	0x3e1ae105	0.151249
38	0x3df45d44	0.119318515
39	0x3ca89933	0.020580864
40	0xbd5df806	-0.05419161
41	0xbe2325b8	-0.15932357
42	0xbe104a60	-0.14090872
43	0x3d84d629	0.0648616
44	0x3d9a34d8	0.075296104
45	0xbdc17ae1	-0.094472654
46	0x3b9f9f4c	0.0048712846
47	0x3dbdd370	0.09268844
48	0xbde516ba	-0.111859754
49	0xbcb432d1	-0.021996887
50	0x3d95071f	0.07276749
51	0xbe3857b4	-0.18002206
52	0xbd2d2171	-0.04226822
53	0xbe23b7f2	-0.15988138
54	0x3c18eefb	0.009334321
55	0x3c8e5ce7	0.017378284
56	0xbdc62733	-0.096754454
57	0x3d05727e	0.03257989
58	0xbc9605b2	-0.018313263
59	0x3da91f07	0.08257871
60	0x3e6b9c97	0.23008953
61	0x3da8e74a	0.0824724
62	0xbdb27710	-0.087141156
63	0xbdba6dd4	-0.09102979
64	0x3c7a04ef	0.015259965
65	0xbd8a4ef5	-0.06753341
66	0x3dc334c0	0.09531546
67	0x3dbfef9a	0.09371872
68	0xbd39c240	-0.045351267
69	0xbca79c83	-0.020460373
70	0xbda1e31f	-0.07904648
71	0xbddc9848	-0.10771233
72	0x3daddf21	0.08489824
73	0xbd738674	-0.059454396
74	0xbcd4cc96	-0.02597646
75	0x3db5d092	0.08877672
76	0xbcc79f93	-0.024368083
77	0x3b9d9195	0.0048086145
78	0xbc78e5af	-0.01519148
79	0xbca701d1	-0.020386608
80	0xbc982000	-0.018569946
81	0x3cd883ae	0.026429977
82	0x3d806206	0.062686965
83	0x3d8ae8cf	0.06782686
84	0x3da1d6a1	0.07902265
85	0x3cf2529a	0.029580403
86	0xbc082aba	-0.008310968
87	0x3dcee2d3	0.10101857
88	0xbde79d55	-0.113093056
89	0x3d83149a	0.06400414
90	0x3d5345fe	0.05158042
91	0x3dc605b8	0.096690595
92	0xbd7b685b	-0.061378818
93	0x3c9aa588	0.01887776
94	0x3cf07a2f	0.029355137
95	0xbdb9fb21	-0.09081102
96	0x3d5ce875	0.053932626
97	0x3d7e522f	0.062090095
98	0xbc7b6cbd	-0.015345749
99	0xbba08557	-0.004898708
100	0xbdde6be0	-0.10860419
101	0xbdf62dbc	-0.12020442
102	0x3c854ca2	0.016271893
103	0xbd14e2fb	-0.036349278
104	0xbd9eb687	-0.07749658
105	0x3c3d81f0	0.011566624
106	0xbc673ee5	-0.014114116
107	0x3d9986cc	0.074964136
108	0x3d80d372	0.0629033
109	0x3e24d0a0	0.16095209
110	0x3d4e2432	0.050327487
111	0x3e46384c	0.19357413
112	0xbd0d5902	-0.034508713
113	0xbdc72fc0	-0.097259045
114	0xbe044c2b	-0.12919681
115	0xbe505f8c	-0.20348948
116	0x3d8c5a91	0.06853212
117	0x3e09b490	0.13447785
118	0x3a4b82e7	0.00077633414
119	0xbd4de55a	-0.050267555
120	0x3de570a1	0.11203123
121	0xbdb84500	-0.08997536
122	0xbd586ec3	-0.052840006
123	0x3ddd4f24	0.108061105
124	0xbc9bbafb	-0.019010058
125	0x3d8e93f0	0.069618106
126	0x3de19af6	0.110158846
127	0xbd2f9ef3	-0.042876195
128	0x3d42066a	0.0473694
129	0xbc0d307a	-0.008617515
130	0xbd702176	-0.05862566
131	0xbd78769d	-0.060659993
132	0xbccc03ee	-0.024904218
133	0xbd2f20c3	-0.042755853
134	0xbd90afc3	-0.07064774
135	0xbd4f54cc	-0.050617978
136	0xbdc261d0	-0.094913125
137	0x3df75a80	0.120778084
138	0xbd866da6	-0.065638825
139	0xbdab075c	-0.08351013
140	0xbe06db72	-0.13169649
141	0x3df5ac99	0.11995811
142	0x3d825fb9	0.06365914
143	0x3da4d530	0.08048475
144	0xbd335f94	-0.043792322
145	0x3ca316e7	0.019908382
146	0x3d707099	0.05870113
147	0x3e00052f	0.12501977
148	0xbd9065f7	-0.07050698
149	0x3da8db4c	0.082449526
150	0xbddd8619	-0.10816593
151	0x3d0919a5	0.033471722
152	0x3d879eeb	0.06622108
153	0x3cd37484	0.025812395
154	0xbdb0a4e6	-0.08625202
155	0x3e3777f0	0.17916846
156	0xbe07cbe2	-0.13261369
157	0x3d38f5b1	0.045156185
158	0x3d87f27b	0.06638046
159	0xbbb5e4fb	-0.0055509782
160	0x3d363f53	0.044493984
161	0x3d21322d	0.039354492
162	0x3db7d3e1	0.089759596
163	0x3c40345d	0.011731234
164	0xbc7c9585	-0.015416508
165	0x3dbcd1f0	0.0921973
166	0x3e88fce9	0.26755455
167	0x3e3d943d	0.1851358
168	0x3d70b695	0.058767874
169	0x3d6ef081	0.05833483
170	0xbda2c3a4	-0.07947472
171	0xbe023346	-0.12714872
172	0xbe11cb3c	-0.14237684
173	0xbe86c692	-0.26323372
174	0xbc7542b3	-0.014969516
175	0xbdb12c89	-0.086510725
176	0xbc8dafdd	-0.017295772
177	0xbd48e3d1	-0.049045388
178	0xbcedc519	-0.029024648
179	0x3c92e198	0.017929837
180	0xbd3ff8f2	-0.046868272
181	0x3db72507	0.08942609
182	0x3d5d1f62	0.053985007
183	0xbd860346	-0.06543593
184	0x3cb167ae	0.021655884
185	0x3d917626	0.07102613
186	0xbd3e318c	-0.04643397
187	0x3d1eef29	0.0388023
188	0xbda84ef3	-0.08218183
189	0xbd6e63f4	-0.05820079
190	0xbd41f454	-0.04735215
191	0xbd248431	-0.04016513
192	0x3b8c4dd3	0.0042817383
193	0xbbef4653	-0.0073020845
194	0x3c8e255a	0.017351795
195	0x3d494818	0.04914102
196	0x3da03653	0.078228615
197	0x3d2caf49	0.042159352
198	0x3e0e1625	0.13875635
199	0x3d844328	0.064581215
200	0x3d4c8403	0.049930584
201	0xbd9557e6	-0.07292156
202	0xbd0b0934	-0.033944324
203	0x3dc8c33d	0.09802864
204	0x3d01db8f	0.031703528
205	0xbd1b01e6	-0.037843607
206	0xbce90b4c	-0.02844777
207	0xbdccab9d	-0.0999367
208	0x3c401a5f	0.011725037
209	0xbdbdc4ad	-0.092660286
210	0x3cbadf84	0.022811659
211	0xbc1492da	-0.009068215
212	0x3d554e79	0.05207679
213	0xbd53afa2	-0.05168117
214	0x3d17993c	0.03701137
215	0xbd02b99f	-0.031915303
216	0xbdce4cbb	-0.10073229
217	0xbd959350	-0.07303488
218	0xbd8fcaf9	-0.07021136
219	0x3dbe3e7b	0.09289261
220	0xbd27cea6	-0.04096856
221	0x3d838280	0.06421375
222	0xbcf51a0e	-0.02991965
223	0xbd7b105e	-0.061294906
224	0x3d28ea63	0.041239154
225	0x3e29d690	0.16585755
226	0x3e6666da	0.22500172
227	0x3e51427a	0.20435515
228	0xbd75f4f6	-0.060048066
229	0xbdfbd11d	-0.122957446
230	0xbd5c3367	-0.05375996
231	0xbe918e0c	-0.28428686
232	0xbd9c0373	-0.076178454
233	0xbd2587ca	-0.0404127
234	0x3e4fcf4d	0.20293923
235	0xbcb55c43	-0.02213872
236	0x3d0a5aef	0.033778127
237	0x3d567443	0.05235697
238	0xba117b0d	-0.0005549647
239	0x3dfe1f89	0.124083586
240	0x3cd7e439	0.026353942
241	0x3de4810e	0.11157428
242	0x3d834197	0.06408995
243	0x3da9be80	0.08288288
244	0x3dbaf546	0.091288134
245	0xbb05c045	-0.002040879
246	0x3d53de65	0.051725764
247	0x3e13d964	0.14438397
248	0x3d6e03be	0.058109038
249	0x3d16e300	0.036837578
250	0x3d970288	0.0737353
251	0x3dbd79bc	0.092517346
252	0x3dc4dc96	0.09612386
253	0x3d864d29	0.06557686
254	0x3dfa9140	0.122347355
255	0x3d359c13	0.044338297

first_layer.norm.weight f4 [58]
0	0x3f65bb6e	0.8973912
1	0x3f765093	0.96216697
2	0x3f78e6ed	0.97227365
3	0x3f8313d6	1.0240428
4	0x3f69e878	0.91370344
5	0x3f6e579d	0.9310244
6	0x3f7091c0	0.93972397
7	0x3f799c83	0.9750444
8	0x3f6ee1a9	0.9331308
9	0x3f76a42c	0.96344256
10	0x3f6836fe	0.9070891
11	0x3f6e43f5	0.93072444
12	0x3f698e34	0.9123261
13	0x3f7123a4	0.9419501
14	0x3f72d1d9	0.9485145
15	0x3f73921d	0.95144826
16	0x3f7aed8f	0.98018736
17	0x3f66d07f	0.9016189
18	0x3f74142a	0.9534327
19	0x3f666097	0.89991134
20	0x3f6fca6d	0.9366825
21	0x3f772adc	0.96549773
22	0x3f72086f	0.9454412
23	0x3f70ebfc	0.94110084
24	0x3f6e0bb7	0.92986625
25	0x3f70acaa	0.94013464
26	0x3f825dc4	1.0184865
27	0x3f6dace4	0.92841935
28	0x3f685edf	0.9076976
29	0x3f8083b2	1.004019
30	0x3f721421	0.94561964
31	0x3f8119b4	1.0085969
32	0x3f7604cc	0.9610107
33	0x3f74ff10	0.95701694
34	0x3f785985	0.97011596
35	0x3f75fcac	0.9608867
36	0x3f761d5c	0.9613855
37	0x3f73b960	0.95204735
38	0x3f6e8ca5	0.93183357
39	0x3f6f017e	0.9336165
40	0x3f7143e5	0.94244224
41	0x3f771408	0.9651494
42	0x3f86733b	1.0503916
43	0x3f7082a3	0.93949336
44	0x3f62b23c	0.88553214
45	0x3f734a5e	0.9503535
46	0x3f705966	0.9388641
47	0x3f697da2	0.91207325
48	0x3f6eaaa6	0.9322914
49	0x3f6a6530	0.9156065
50	0x3f67a33b	0.90483445
51	0x3f717626	0.94320905
52	0x3f704209	0.9385076
53	0x3f676b9e	0.90398586
54	0x3f7b5c86	0.98188055
55	0x3f74d354	0.9563496
56	0x3f73cb1d	0.952318
57	0x3f761bfe	0.9613646

first_layer.norm.bias f4 [58]
0	0x3aef2d3c	0.0018247734
1	0x3d43fbcb	0.04784755
2	0x3d4bc598	0.049748987
3	0xbcc98c42	-0.024603013
4	0xbc9c71ec	-0.019097291
5	0xbc34dacb	-0.011038492
6	0xbd82772a	-0.06370385
7	0xbd2e3763	-0.04253329
8	0x3cb3c2a5	0.0219434
9	0x3d02385b	0.031792026
10	0x3b801992	0.003909298
11	0xbd116d19	-0.035504434
12	0xbd9c6453	-0.07636323
13	0xbcb8530e	-0.022500541
14	0x3d3465bc	0.044042334
15	0xbda68f47	-0.08132797
16	0x3c8ee16e	0.017441478
17	0x3d38190e	0.04494577
18	0xbdc8082e	-0.09767185
19	0xbdf054af	-0.11734902
20	0xbd6540ab	-0.055969875
21	0x3d00d744	0.031455293
22	0xbb914287	-0.0044329795
23	0xbcc97fe2	-0.024597112
24	0x3cf46c24	0.029836722
25	0x3d36907c	0.044571385
26	0x3da582cc	0.08081588
27	0x3c1d0056	0.0095826
28	0xbcfc99e9	-0.030835109
29	0x3da48c73	0.08034601
30	0x3b6ffa01	0.003661752
31	0xbd89bc85	-0.0672541
32	0x3b9bb7c4	0.004752131
33	0xbd90ef1c	-0.070768565
34	0xbca042e8	-0.019563153
35	0xbc6bbfa7	-0.014388955
36	0x3ddaef00	0.10690117
37	0xbd9c12ea	-0.07620795
38	0x3d868302	0.065679565
39	0xbdaecd51	-0.08535255
40	0x3c9f6fbb	0.019462457
41	0x3d0b7cd2	0.034054585
42	0x3d1402cf	0.03613549
43	0x3d273e10	0.04083067
44	0x3c2a41e4	0.010391686
45	0xbd088dfa	-0.033338524
46	0xbcd1b4ba	-0.025598872
47	0xbda0d864	-0.07853773
48	0x3d59cc33	0.053173255
49	0x3d133b0c	0.035944983
50	0x3d87fb54	0.06639734
51	0xbd4d7462	-0.05015982
52	0x3d81dd1d	0.06341002
53	0x3c5efabb	0.0136095835
54	0x3d0ca292	0.034334727
55	0x3d03419c	0.03204499
56	0xbd0b5023	-0.03401197
57	0x3d24546c	0.040119573

first_layer.norm.running_mean f4 [58]
0	0x405ce254	3.451314
1	0xbde29d94	-0.11065212
2	0x3ed86bd2	0.4226976
3	0xbfc75fc0	-1.5576096
4	0x408db6a5	4.4285455
5	0xbe745009	-0.23858656
6	0x3fb03207	1.3765267
7	0xc00eb7de	-2.2299724
8	0xbfb325e1	-1.3995935
9	0xbf5dd44a	-0.8665205
10	0x402e39fc	2.722289
11	0x400f568f	2.239658
12	0xbf866896	-1.0500667
13	0x401bd2bb	2.434737
14	0xc0622637	-3.5335824
15	0x400675f2	2.1009488
16	0xbe693bfc	-0.22776788
17	0xbf8f4399	-1.1192504
18	0x403544aa	2.832316
19	0x405c09bf	3.4380949
20	0x4029e6d4	2.6547136
21	0x3ed82bd1	0.4222093
22	0xbc4009ee	-0.011721117
23	0x3f18437f	0.5947799
24	0xbf8abae2	-1.0838282
25	0xc08e8e47	-4.454868
26	0xbf762b13	-0.96159476
27	0x40215312	2.5206952
28	0x3e220f05	0.15826042
29	0xc06e6287	-3.7247636
30	0x40090fa3	2.1415794
31	0x3fed2efd	1.8529965
32	0x3e25c042	0.16186622
33	0xbf143e7d	-0.5790785
34	0xbfb1e36b	-1.3897527
35	0xc080b0ea	-4.021596
36	0xc0083f37	-2.1288583
37	0xc00d1d00	-2.204895
38	0xc03183d8	-2.773672
39	0xbf96a817	-1.1770047
40	0xbed6e54b	-0.41971812
41	0xbf1dd0c1	-0.6164666
42	0x4008da14	2.1383104
43	0x406efcab	3.7341716
44	0xbf7f6af4	-0.9977257
45	0x4010b1ee	2.26086
46	0x3ff76b9f	1.9329718
47	0x403d78d3	2.9604995
48	0xc072c0c2	-3.793015
49	0x3f70b09e	0.94019496
50	0xbfa393f0	-1.2779522
51	0xbf02d9f9	-0.5111385
52	0x3e6b6234	0.2298668
53	0x401435fe	2.3157954
54	0xbfedda27	-1.85822
55	0x3f9574c3	1.1676258
56	0x4089e27b	4.3088965
57	0xbf57460a	-0.84091246

first_layer.norm.running_var f4 [58]
0	0x4060f75e	3.515098
1	0x3e5f83f8	0.21827686
2	0x3f67ae00	0.9049988
3	0x3ddd511c	0.10806486
4	0x3f7295b2	0.94759667
5	0x3f784cbd	0.96992093
6	0x3f880a2a	1.0628102
7	0x3eaf6dc9	0.34263447
8	0x3f91a172	1.1377394
9	0x3e446936	0.1918076
10	0x3fbc9992	1.4734366
11	0x3ffd0efe	1.97702
12	0x4013dc54	2.3103228
13	0x3f6e70e3	0.93141
14	0x40051760	2.0795517
15	0x401bb7ed	2.433101
16	0x3ec2d58e	0.38053554
17	0x3f1e1a57	0.6175894
18	0x3fff0121	1.992222
19	0x3fd3c2d8	1.6543837
20	0x3fdc3640	1.7204056
21	0x3e18d624	0.14925438
22	0x40120f3f	2.2821805
23	0x3f01d2fe	0.50712574
24	0x3f7d3538	0.9890933
25	0x4034474b	2.8168514
26	0x3d59b057	0.053146686
27	0x3f4e6143	0.8061716
28	0x3ef5169f	0.4786882
29	0x3ea7d830	0.32782125
30	0x3e974b57	0.29549667
31	0x3e8c3522	0.27384287
32	0x3e61f6fc	0.22066873
33	0x3fa58f91	1.2934438
34	0x3fe1db9d	1.7645146
35	0x405dd99b	3.4664066
36	0x3f8bca19	1.092105
37	0x3efb7cf5	0.49118772
38	0x4036457a	2.8479905
39	0x3f834d7c	1.0258021
40	0x3f320f19	0.6955429
41	0x3e9be8a0	0.30450916
42	0x3e4b83ce	0.19874498
43	0x3f1f4cfe	0.62226856
44	0x3f38eac8	0.7223325
45	0x3f5e8633	0.8692352
46	0x401174ba	2.2727494
47	0x3f96deb4	1.1786714
48	0x3f9814f1	1.1881391
49	0x3f18295f	0.5943813
50	0x401fd0c7	2.4971178
51	0x3f3a5125	0.72780067
52	0x3e6e42c6	0.2326766
53	0x3ee7525a	0.45180017
54	0x3dd7034d	0.104986764
55	0x3e1aa74a	0.15102878
56	0x3fbfefc0	1.4995041
57	0x3f3e2c37	0.74286216

trunk.0.expand.linear.weight f4 [174, 58]
0	0x3daed6ed	0.085370876
1	0xbdc4e323	-0.096136354
2	0x3d59d6cf	0.053183373
3	0xbd617c6a	-0.05505029
4	0xbd1b3920	-0.037896276
5	0xbd10edbc	-0.03538297
6	0xbcc4dac9	-0.024030106
7	0xbca4ad47	-0.020102156
8	0x3daae091	0.08343614
9	0xbe0822d0	-0.1329453
10	0x3d796830	0.060890377
11	0x3df52403	0.11969759
12	0xbcb11618	-0.02161698
13	0x3dd5fc52	0.10448517
14	0xbddab286	-0.10678582
15	0x3ca85d10	0.020552188
16	0x3e1da4ec	0.15394944
17	0x3d6931a0	0.05693209
18	0xbccbb539	-0.024866687
19	0x3e149475	0.14509757
20	0xbca4ced4	-0.020118155
21	0xbd8cdddf	-0.06878256
22	0x3ddf27b8	0.108962476
23	0xb9905c56	-0.00027534616
24	0xbd8c929a	-0.068638995
25	0x3d1c8d82	0.03822089
26	0x3de2e8cf	0.11079561
27	0xbdb4a2b4	-0.08820096
28	0x3dbda61a	0.09260197
29	0x3cea070a	0.02856781
30	0x3ce60c22	0.028081957
31	0x3cc7b850	0.02437988
32	0xbd87d32c	-0.06632075
33	0xbcedd9c4	-0.029034503
34	0xbcd86b7f	-0.026418446
35	0xbd6bea2c	-0.05759637
36	0x3d46dc2b	0.048549812
37	0xbc73b7b4	-0.014875341
38	0x3deb0d9a	0.11477204
39	0xbd76ca3f	-0.06025147
40	0xbdbf78c9	-0.0934921
41	0x3da90e0d	0.08254633
42	0xbd9a559e	-0.075358614
43	0xbc10d6d7	-0.008840284
44	0x3dc5adbf	0.0965228
45	0xbd15a01b	-0.03652964
46	0xbde268a6	-0.11055116
47	0x3bef2a8b	0.0072987727
48	0x3c43287d	0.011911509
49	0x3d8ca89d	0.06868098
50	0x3ddbe7c0	0.10737562
51	0xbd16cb9e	-0.03681528
52	0xbd9a0360	-0.07520175
53	0xbd9171f1	-0.07101811
54	0xbddeb9de	-0.10875295
55	0x3bb546d0	0.005532123
56	0x3e231e2e	0.15929481
57	0x3ce17cea	0.027525384
58	0xbc54acdb	-0.012980665
59	0x3d81409f	0.063111536
60	0xbde2b7cd	-0.110702135
61	0x3d387868	0.045036703
62	0xbd29842a	-0.041385807
63	0x3dca87e1	0.09889198
64	0xbd14dddc	-0.036344394
65	0xbd5c45fb	-0.053777676
66	0xbd1f8096	-0.03894099
67	0xbcfa3470	-0.030542582
68	0xbdd32dae	-0.10311447
69	0x3e172a6d	0.14762278
70	0x3cd1c7e4	0.02560801
71	0xbd0c6db9	-0.034284327
72	0xbc9b8053	-0.018982088
73	0x3dfac3d7	0.12244385
74	0x3d7736d7	0.060355034
75	0x3dc6067b	0.09669205
76	0xbdae42f8	-0.08508867
77	0x3da6adcf	0.0813862
78	0x3d96abbf	0.07356977
79	0x3e1b5945	0.15170772
80	0x3d46fba9	0.048579846
81	0xbddc2e98	-0.107510746
82	0x3d9141bb	0.07092615
83	0xbd269be7	-0.040676024
84	0x3e09a7b2	0.13442877
85	0xbd5b0221	-0.053468827
86	0x3d7c8045	0.061645765
87	0x3dc9b90b	0.09849747
88	0xbd9fe111	-0.078066
89	0xbde18493	-0.11011615
90	0x3c126c10	0.008936897
91	0x3c8e4ec2	0.017371539
92	0x3ba13575	0.0049197027
93	0xbd34d41f	-0.044147607
94	0x3d116d91	0.03550488
95	0xbd03a8fa	-0.03214357
96	0xbdc605c7	-0.09669071
97	0x3d88baa5	0.066762246
98	0xbe0f149e	-0.13972709
99	0x3b9a8cb3	0.0047164797
100	0xbd50ef4a	-0.051009454
101	0x3d70dcdb	0.058804374
102	0xbdcef5b8	-0.10105461
103	0xbcca8f5f	-0.024726568
104	0xbdaeb091	-0.08529771
105	0xbd4e7b7f	-0.050410744
106	0xbe0a9602	-0.13533786
107	0xbddcfd86	-0.10790543
108	0x3dad8f39	0.08474583
109	0xbdc52ce3	-0.09627702
110	0xbe0db7ab	-0.13839595
111	0xbd5dff6a	-0.05419866
112	0xbde57151	-0.11203254
113	0xbdd6f47a	-0.10495849
114	0xbdb038cb	-0.086045824
115	0xbcd21676	-0.025645476
116	0xbe091269	-0.13385929
117	0x3d601301	0.054705624
118	0xbe1b255e	-0.15150973
119	0x3c07663c	0.008264121
120	0x3bd24fa0	0.0064181834
121	0x3c984811	0.018589051
122	0x3d453e11	0.048154894
123	0xbd0a932f	-0.03383177
124	0x3d9cf977	0.07664769
125	0x3e015b6a	0.12632528
126	0xbdb84673	-0.08997812
127	0x3b6458f6	0.0034843064
128	0xbc46b443	-0.012127939
129	0xbd007c25	-0.031368393
130	0x3c3b4352	0.011429625
131	0x3d8471ef	0.064670436
132	0xbe05caae	-0.13065597
133	0x3b451e61	0.0030077922
134	0xbdbd776d	-0.09251294
135	0xbd989de0	-0.07451987
136	0x3d2943a3	0.04132427
137	0xbd744516	-0.059636198
138	0x3dc1574f	0.09440481
139	0xbdb26c41	-0.08712054
140	0x3a7ae6f9	0.0009571161
141	0xbd52d726	-0.051474713
142	0x3be62b9e	0.0070242425
143	0xbd8dbfce	-0.069213495
144	0x3d44e3c5	0.04806878
145	0xbddc8296	-0.10767095
146	0xbd387c9b	-0.045040708
147	0xbdb63ee8	-0.08898717
148	0x3be2ebae	0.006925068
149	0xbdd189d8	-0.1023137
150	0xbcddbcdf	-0.0270676
151	0x3dd7f04b	0.10543879
152	0x3d2fc331	0.04291076
153	0x3c61af28	0.013774671
154	0x3dc9d5c1	0.098552234
155	0xbd23689b	-0.03989468
156	0xbdd2f1b0	-0.103000045
157	0x3dd2623d	0.10272644
158	0x3e1d80cc	0.15381163
159	0xbda273b7	-0.07932227
160	0xbe0702e2	-0.13184693
161	0xbd15ff0a	-0.036620177
162	0x3dd3f4e2	0.10349442
163	0xbde47a11	-0.11156095
164	0xbd4ce38a	-0.050021686
165	0xbda78534	-0.08179703
166	0xbd853ae9	-0.06505377
167	0xbcb06cfc	-0.021536343
168	0xbd2b3383	-0.041797172
169	0x3da87030	0.08224523
170	0xbd7c6b74	-0.061625913
171	0x3997468d	0.0002885353
172	0x3cc5c917	0.024143739
173	0xbdc88cc1	-0.09792472
174	0x3d25ced6	0.040480457
175	0x3dd3aeae	0.10336052
176	0xbddbadd4	-0.107265145
177	0xbddd4fc3	-0.10806229
178	0xbdac590e	-0.08415423
179	0x3d10231f	0.035189744
180	0xbca9c277	-0.02072261
181	0xbdc1ab12	-0.09456457
182	0x3da67a4f	0.08128797
183	0xbd9f4208	-0.07776266
184	0xbe0a1ed4	-0.13488322
185	0x3aa009c5	0.0012209943
186	0x3cd7b03c	0.026329152
187	0xbc2fa342	-0.010720076
188	0x3d814bc5	0.0631328
189	0xbd3b642a	-0.04574982
190	0xbd64a419	-0.05582056
191	0xbdce49c6	-0.10072665
192	0xbd1aff64	-0.037841216
193	0xbd43b8b3	-0.047783565
194	0x3a9a2c10	0.0011762399
195	0x3d961a95	0.07329289
196	0xbdeaaa3e	-0.11458252
197	0x3c8269f9	0.015919672
198	0xbdcbc00c	-0.099487394
199	0x3cfd11f3	0.030892348
200	0x3cf1fd08	0.0295396
201	0xbdbe7123	-0.09298923
202	0xbcce1ba9	-0.025159674
203	0x3d248f34	0.04017563
204	0xbbd27dfd	-0.0064237104
205	0xbd412fed	-0.047164846
206	0x3d0abc1a	0.033870794
207	0x3d9b76d5	0.07591025
208	0xbd93a885	-0.07209877
209	0xbda7701f	-0.08175682
210	0xbe11d342	-0.14240745
211	0xbce5bbe6	-0.028043699
212	0xbd90a9a5	-0.07063607
213	0x3d0e2d89	0.034711394
214	0x3d7bdf19	0.06149206
215	0x3d133302	0.035937317
216	0x3dea6f9e	0.114470705
217	0x3dd54c10	0.104148984
218	0x3d556aed	0.052103925
219	0xbd5a72da	-0.053332187
220	0x3d105642	0.03523851
221	0x3db707a0	0.08937001
222	0xbd288c5a	-0.041149475
223	0x3d217c14	0.03942497
224	0xbd0fdb43	-0.035121214
225	0x3d965854	0.07341066
226	0x3d718044	0.058960214
227	0xbd7c2988	-0.061563045
228	0xbdf4c111	-0.11950887
229	0x3de42577	0.11139958
230	0xbddb6d80	-0.10714245
231	0xbd4251cc	-0.04744129
232	0xbcabf1a6	-0.02098925
233	0xbd0c03eb	-0.034183424
234	0xbce016c1	-0.0273546
235	0xbcb39d4e	-0.021925595
236	0x3d564f6b	0.052321833
237	0xbcd6969d	-0.026194865
238	0x3d106eb3	0.03526182
239	0x3d0c6e4c	0.034284875
240	0x3cb6bd23	0.022306984
241	0xbdb7efac	-0.08981261
242	0x3d8aa67f	0.06770038
243	0xbc8e1634	-0.017344572
244	0x3ba157dd	0.004923804
245	0xbdf291f8	-0.118442476
246	0x39c4accf	0.00037512786
247	0x3d190df0	0.037366807
248	0xbdb71362	-0.08939244
249	0xbd71e77d	-0.059058655
250	0xbdd0d0e9	-0.101960965
251	0x3dd7a871	0.105301745
252	0x3e08648e	0.13319609
253	0xbdf52e06	-0.11971669
254	0x3d7716f5	0.060324628
255	0x3e0db873	0.13839893

trunk.0.expand.norm.weight f4 [174]
0	0x3f73d267	0.95242923
1	0x3f761b2d	0.96135217
2	0x3f6f9af7	0.9359583
3	0x3f79298d	0.97329026
4	0x3f7d7e26	0.9902061
5	0x3f7c4519	0.98542935
6	0x3f6f52ac	0.9348552
7	0x3f74db4b	0.95647115
8	0x3f7a573b	0.97789353
9	0x3f6ba766	0.92052305
10	0x3f8262b4	1.0186372
11	0x3f77d6da	0.9681221
12	0x3f6cf4f0	0.92561245
13	0x3f7bc260	0.9834347
14	0x3f7673ca	0.9627043
15	0x3f79cb6e	0.97576034
16	0x3f6b050d	0.9180458
17	0x3f743f80	0.95409393
18	0x3f7aaea4	0.9792273
19	0x3f7287ec	0.9473865
20	0x3f79c77a	0.9757
21	0x3f7199c4	0.9437525
22	0x3f6df08c	0.9294517
23	0x3f72073b	0.9454228
24	0x3f656770	0.8961096
25	0x3f6e7d45	0.93159896
26	0x3f74abd4	0.9557469
27	0x3f764be2	0.9620954
28	0x3f71ef1d	0.9450548
29	0x3f764335	0.961963
30	0x3f70809a	0.9394623
31	0x3f73e11c	0.95265365
32	0x3f79ecf1	0.9762717
33	0x3f5dcedd	0.86643773
34	0x3f74ac54	0.9557545
35	0x3f730461	0.94928557
36	0x3f76d255	0.9641469
37	0x3f739341	0.95146567
38	0x3f7481f3	0.95510787
39	0x3f610fdf	0.8791484
40	0x3f81adc5	1.0131155
41	0x3f7ad76a	0.97984946
42	0x3f77e356	0.9683126
43	0x3f6ce2fe	0.9253386
44	0x3f73efbd	0.95287687
45	0x3f63a7ff	0.88928217
46	0x3f7ba2ea	0.9829546
47	0x3f6b1e9a	0.9184357
48	0x3f65bf6f	0.8974523
49	0x3f762c6a	0.9616152
50	0x3f75da08	0.96035814
51	0x3f7746bc	0.9659231
52	0x3f67eea5	0.9059852
53	0x3f67cefd	0.90550214
54	0x3f7809e8	0.96890116
55	0x3f73212e	0.94972503
56	0x3f774761	0.9659329
57	0x3f703a1c	0.9383867
58	0x3f823d08	1.0174875
59	0x3f793c9e	0.9735812
60	0x3f73169e	0.94956386
61	0x3f746ef2	0.9548179
62	0x3f7b234c	0.98100734
63	0x3f6bfb95	0.9218076
64	0x3f69fb11	0.9139872
65	0x3f717781	0.94322973
66	0x3f72b12a	0.9480158
67	0x3f806d14	1.0033288
68	0x3f6a8506	0.9160923
69	0x3f74011f	0.9531421
70	0x3f79011b	0.9726731
71	0x3f7e572f	0.9935178
72	0x3f70fbb6	0.9413408
73	0x3f79f23f	0.97635263
74	0x3f6c71bc	0.92361045
75	0x3f78cc23	0.9718649
76	0x3f72c90f	0.9483804
77	0x3f8133cf	1.0093936
78	0x3f7394db	0.9514901
79	0x3f794ef0	0.97386074
80	0x3f6efab0	0.9335127
81	0x3f70ee97	0.9411406
82	0x3f670144	0.90236306
83	0x3f7537f2	0.9578849
84	0x3f756d5d	0.9587
85	0x3f758f7e	0.95922077
86	0x3f6d472a	0.9268671
87	0x3f814e40	1.0102005
88	0x3f7b6ded	0.9821461
89	0x3f799f08	0.9750829
90	0x3f7b3916	0.9813398
91	0x3f6e4143	0.9306833
92	0x3f7101f3	0.941436
93	0x3f75811e	0.9590014
94	0x3f78c1d8	0.9717078
95	0x3f62a332	0.88530266
96	0x3f73e542	0.95271695
97	0x3f70a5c4	0.9400294
98	0x3f7136aa	0.94224036
99	0x3f7a1996	0.9769529
100	0x3f813b16	1.0096157
101	0x3f7ac330	0.9795408
102	0x3f5f4275	0.8721078
103	0x3f7d3c6a	0.9892031
104	0x3f78b7f9	0.9715572
105	0x3f75e5b0	0.960536
106	0x3f822bfb	1.0169672
107	0x3f76c1d9	0.9638954
108	0x3f6a08b8	0.91419554
109	0x3f834371	1.0254956
110	0x3f7b3e19	0.9814163
111	0x3f725055	0.94653827
112	0x3f6f65cb	0.935147
113	0x3f77cac7	0.9679379
114	0x3f615c1c	0.8803117
115	0x3f6bc653	0.92099494
116	0x3f6d51ba	0.9270283
117	0x3f6d5a16	0.92715585
118	0x3f65acc5	0.8971675
119	0x3f82cef3	1.0219406
120	0x3f795cc7	0.9740719
121	0x3f7746d5	0.96592456
122	0x3f6b1d58	0.9184165
123	0x3f7837e5	0.9696029
124	0x3f77369d	0.9656771
125	0x3f7747ef	0.96594137
126	0x3f68b4fc	0.9090116
127	0x3f6f6a44	0.93521523
128	0x3f712f77	0.9421305
129	0x3f7acbf4	0.9796746
130	0x3f6a8928	0.91615534
131	0x3f739663	0.95151347
132	0x3f76ae8b	0.9636008
133	0x3f783230	0.9695158
134	0x3f70215f	0.9380092
135	0x3f61c8fa	0.8819729
136	0x3f720301	0.94535834
137	0x3f7c6f3e	0.9860724
138	0x3f667f58	0.9003806
139	0x3f638df1	0.8888846
140	0x3f663f61	0.8994046
141	0x3f743f43	0.9540903
142	0x3f73ea23	0.9527914
143	0x3f7ce31e	0.98784053
144	0x3f77ffa8	0.96874475
145	0x3f7f7ca5	0.9979957
146	0x3f854342	1.041115
147	0x3f7590cc	0.9592407
148	0x3f67196b	0.9027316
149	0x3f7b7055	0.9821828
150	0x3f79068c	0.97275615
151	0x3f7206de	0.9454173
152	0x3f6fda1f	0.936922
153	0x3f77fc37	0.96869224
154	0x3f6ae39a	0.9175354
155	0x3f731195	0.94948703
156	0x3f78d1e4	0.9719527
157	0x3f72724c	0.94705653
158	0x3f71a374	0.94390035
159	0x3f79a83c	0.9752233
160	0x3f75eea0	0.9606724
161	0x3f7abaf4	0.9794152
162	0x3f75d656	0.96030176
163	0x3f801075	1.0005022
164	0x3f743ca4	0.9540503
165	0x3f7c4a4a	0.98550856
166	0x3f76af99	0.9636169
167	0x3f7bf9c9	0.98428017
168	0x3f7ad659	0.9798332
169	0x3f7f811c	0.9980638
170	0x3f705c79	0.938911
171	0x3f78ab4c	0.9713638
172	0x3f75354d	0.95784456
173	0x3f77e399	0.9683166

trunk.0.expand.norm.bias f4 [174]
0	0xbc8737ed	-0.01650616
1	0xbca78a56	-0.020451706
2	0x3cda6a83	0.026662117
3	0xbc4ac5e8	-0.012376286
4	0x3caedc4e	0.021345284
5	0xbbda7459	-0.0066667018
6	0x3cd61628	0.026133612
7	0x3c3b8ea0	0.011447579
8	0x3c90c3aa	0.017671425
9	0x3d64e198	0.055879205
10	0x3b433ef0	0.0029792152
11	0xbc979c6e	-0.018507209
12	0x3d4040bc	0.046936736
13	0xbc0b30b1	-0.008495496
14	0xbca8dbf7	-0.0206127
15	0x3bb82a19	0.005620253
16	0x3d69bd0f	0.057065066
17	0xbcf9d399	-0.030496405
18	0xbc893605	-0.016749391
19	0xbcfd3bc6	-0.030912291
20	0x3c9ac33e	0.018891927
21	0x3c76c3f6	0.015061369
22	0x3d36c208	0.044618636
23	0x3cb46a15	0.02202324
24	0xbd911f69	-0.07086069
25	0xbd092430	-0.033481777
26	0xbc09b4ff	-0.008404969
27	0xbc4900e1	-0.012268276
28	0xbcdae736	-0.026721578
29	0xbc42b548	-0.011884041
30	0x3d2c42cd	0.042055894
31	0x3c989366	0.018624973
32	0x3c88c819	0.016696976
33	0x3dae5ba9	0.085135765
34	0x3cf99c22	0.030469958
35	0xbd19bf02	-0.037535675
36	0x3c90a930	0.0176588
37	0x3cd59084	0.026069887
38	0xbca12ea3	-0.019675558
39	0x3daf47cc	0.08558616
40	0x3bce03d2	0.0062870765
41	0xbc61fe96	-0.013793608
42	0x3c8c81e4	0.01715178
43	0x3d03f371	0.032214586
44	0x3cfb8809	0.030704515
45	0x3d8b5aca	0.06804426
46	0x3c56c836	0.013109257
47	0x3d29a377	0.041415658
48	0x3d663179	0.056199525
49	0xbc902721	-0.017596783
50	0x3d1defe8	0.03855887
51	0x3d248532	0.040166087
52	0xbd7f6e57	-0.062361088
53	0x3d74f5b6	0.05980464
54	0xbcd28785	-0.025699386
55	0xbcbe9571	-0.023264619
56	0xbc8a7866	-0.016903114
57	0x3cea0c4f	0.028570322
58	0x3b06d74f	0.0020575111
59	0xbc8eb837	-0.017421825
60	0x3cce4dc7	0.025183572
61	0x3c738cfd	0.014865157
62	0xbc81d5ce	-0.01584902
63	0x3d302c22	0.04301084
64	0x3d493c4d	0.049129773
65	0x3c82c42d	0.015962685
66	0x3c489a22	0.012243779
67	0x3bc52020	0.0060157925
68	0x3d6846b7	0.056708064
69	0x3cecb0a7	0.028892828
70	0x3c84dbe0	0.016218126
71	0xbc3887aa	-0.011262814
72	0xbd2860c5	-0.04110791
73	0x3bfefa9d	0.0077813403
74	0x3d39a0d5	0.045319397
75	0x3c5c7664	0.013455961
76	0x3ccd7945	0.02508224
77	0x3b2cf78e	0.0026392671
78	0x3ceb7e93	0.028746879
79	0x3cba86ff	0.02276945
80	0xbd02c064	-0.03192176
81	0xbcd9ec7f	-0.026602028
82	0xbdaeab18	-0.08528727
83	0x3c8de439	0.01732074
84	0x3d0620e1	0.0327462
85	0x3c663df1	0.014052854
86	0x3d4be2eb	0.049776953
87	0xbc00c947	-0.007860488
88	0xbca00c64	-0.019537158
89	0xbc428c2b	-0.011874239
90	0x3c918c4e	0.017767098
91	0x3cdd4a75	0.027013043
92	0x3cb5b566	0.022181224
93	0xbc55f950	-0.013059929
94	0x3c1a64b2	0.009423422
95	0x3da153e6	0.078773305
96	0xbc009380	-0.007847667
97	0xbcd51a5e	-0.02601355
98	0xbc897738	-0.01678048
99	0xbaff498d	-0.0019476876
100	0x3b85c69e	0.004082515
101	0x3c27a4d1	0.010232166
102	0xbdbf0882	-0.093277946
103	0xba0caefb	-0.00053666503
104	0xbcabf6d8	-0.020991728
105	0x3d1d805a	0.038452484
106	0x3ba36db8	0.0049874447
107	0x3c683232	0.014172124
108	0xbd2b0a81	-0.041758064
109	0x3c287ffc	0.01028442
110	0x3b01e4f8	0.0019820314
111	0xbcf35972	-0.029705737
112	0x3d17f133	0.03709526
113	0x3c753dce	0.014968349
114	0x3d9275c0	0.07151365
115	0x3d3a1896	0.045433603
116	0x3ce43f8b	0.02786233
117	0x3d2e1254	0.042497948
118	0x3d8ec53c	0.06971213
119	0xbae0abd1	-0.0017141049
120	0x3c90e347	0.0176865
121	0x3b8cb83c	0.0042944234
122	0x3d490bf3	0.04908366
123	0x3c90d17f	0.01767802
124	0x3cca8bf0	0.02472493
125	0x3c8a0c35	0.016851524
126	0x3d5d3ef5	0.05401512
127	0x3d765522	0.060139783
128	0x3c8be3df	0.01707643
129	0xba9b1ad9	-0.0011833563
130	0x3d7d7613	0.061880182
131	0x3cb1c113	0.02169851
132	0x3cdfa4c1	0.02730024
133	0xbc5a3e9e	-0.013320593
134	0x3d18adf0	0.037275255
135	0x3da6b59f	0.0814011
136	0x3ccc106b	0.024910172
137	0x3c2d000d	0.010559094
138	0x3d8ea42b	0.06964906
139	0x3d8df6f9	0.06931872
140	0x3d5c2a16	0.053751074
141	0xbcd97c48	-0.02654852
142	0xbcbe0dc1	-0.023199918
143	0x3baba37c	0.0052379947
144	0x3c8168ec	0.015797101
145	0xba230172	-0.0006218172
146	0xbafaa9cb	-0.0019124089
147	0x3c9e7767	0.019344045
148	0x3d86105f	0.06546091
149	0x3b4423f0	0.0029928647
150	0xbbab94b1	-0.0052362313
151	0x3d028344	0.031863466
152	0x3d045fff	0.03231811
153	0xbc03d794	-0.008047003
154	0xbd6a6519	-0.05722532
155	0x3cc43585	0.023951301
156	0xbbf2b7c4	-0.0074071605
157	0x3d307976	0.043084584
158	0xbd40f37a	-0.047107197
159	0x3d30d664	0.04317321
160	0xbc9261cf	-0.017868904
161	0xbbbb9a0a	-0.00572515
162	0x3cb672a2	0.022271458
163	0x3cc7e963	0.02440328
164	0x3be7f992	0.0070793116
165	0xbb6a0398	-0.0035707708
166	0x3bea8d98	0.0071579926
167	0xbce600c6	-0.02807654
168	0x3b27de73	0.0025614768
169	0xb707b9a9	-8.089854e-06
170	0xbd4643c6	-0.048404478
171	0x3c81712d	0.015801037
172	0xbcbd6894	-0.023121156
173	0x3c9e6f66	0.019340228

trunk.0.expand.norm.running_mean f4 [174]
0	0x3befde3c	0.0073201936
1	0xbbbb5e5f	-0.005718037
2	0x3c5d8ca2	0.013522299
3	0x3b9d9106	0.004808548
4	0xbd1f3c03	-0.03887559
5	0xbd790baa	-0.06080214
6	0xbd64c52b	-0.055852097
7	0xbc614c52	-0.013751106
8	0x3d18f34c	0.0373414
9	0xbd98c23b	-0.074589215
10	0x3c7747fa	0.015092844
11	0xbc987bae	-0.018613663
12	0xbd35f377	-0.04442164
13	0x3d50f045	0.05101039
14	0x3c84de49	0.016219275
15	0x3d89187a	0.06694122
16	0xbd36a4a0	-0.044590592
17	0x3c5b8ffe	0.01340103
18	0x3d17984d	0.03701048
19	0xbd629b8a	-0.055324115
20	0x3b534fcd	0.003224361
21	0x3b7e90bc	0.0038843593
22	0x3d95bb50	0.07311118
23	0x3bb9fcfe	0.005675911
24	0x3d2000bd	0.039063204
25	0xbd6e5a4a	-0.058191575
26	0xbc71a9ba	-0.014749939
27	0xbd8bd640	-0.06827974
28	0x3ce7afad	0.02828201
29	0x3d5b1089	0.053482566
30	0xbbdc63ba	-0.0067257555
31	0x3c05e920	0.008173257
32	0xbbf8e343	-0.007595451
33	0x3c26c4ee	0.010178788
34	0x3c023990	0.007948294
35	0xbbc62f36	-0.0060481085
36	0x3c9b7643	0.01897729
37	0x3d469118	0.048478216
38	0x3d2f4984	0.04279472
39	0xbd9d8ebd	-0.07693241
40	0x3cb01247	0.02149309
41	0x3d9d0c89	0.076684065
42	0x3c6c957a	0.014439935
43	0x3cab7fd1	0.020934971
44	0x3ca81d27	0.020521713
45	0xbc44dcba	-0.012015516
46	0xbd2a7f3e	-0.041625254
47	0xbba7463a	-0.005104807
48	0xbcd6464b	-0.026156565
49	0x3c66b77e	0.014081834
50	0x3c2c92b5	0.010533025
51	0xbcb9a5ed	-0.022662127
52	0x3d4e49cb	0.050363343
53	0xbbc9571b	-0.006144417
54	0x3c76bd83	0.015059832
55	0x3d6b3fcc	0.05743389
56	0x3cad7357	0.021173162
57	0xbd307482	-0.04307986
58	0x3c74bf9e	0.014938263
59	0xbd6e5532	-0.058186717
60	0xbbd704ad	-0.0065618367
61	0xbc013a9f	-0.0078875115
62	0x3b332941	0.0027337822
63	0xbcbc6ed4	-0.023002066
64	0xbbbd61e0	-0.00577949
65	0x3c9a3255	0.018822828
66	0xbcc2393d	-0.023708934
67	0xbc59adbf	-0.013286053
68	0xbd10c238	-0.03534147
69	0x3b40933a	0.002938463
70	0x3c841ee1	0.016128005
71	0x3c67e7d6	0.014154395
72	0xbadebbce	-0.0016993226
73	0x3bc6acd6	0.006063084
74	0xbbe31832	-0.0069303745
75	0x3c7e81c6	0.01553387
76	0x3c725359	0.014790379
77	0xbcc11aa6	-0.023572277
78	0x3d0b8c65	0.034069438
79	0xbc196b8c	-0.00936402
80	0x3b1163df	0.0022184772
81	0xbc73db41	-0.014883817
82	0xbaf98704	-0.001903743
83	0xbd75bccb	-0.0599945
84	0xbb6a1a08	-0.0035721082
85	0xbce5ed7b	-0.028067341
86	0x3b1fa7b8	0.0024361443
87	0xbb9297de	-0.0044736704
88	0x3d0bf8d0	0.034172833
89	0x39dd7d9c	0.0004224599
90	0x3a66e85e	0.0008808429
91	0xbc23277b	-0.009958143
92	0x3ca9ad84	0.020712622
93	0x3d3d82c2	0.04626728
94	0xbc1a48e4	-0.009416793
95	0xb9f01176	-0.00045789377
96	0x3d14212f	0.03616446
97	0xb9d072bf	-0.00039758344
98	0x3d00a0b9	0.031403277
99	0x3ca2064d	0.019778395
100	0x3c6ecf00	0.01457572
101	0x3c06c307	0.008225209
102	0x3c37caf2	0.0112178195
103	0x3cc4b75a	0.02401321
104	0xbb9576ab	-0.0045612655
105	0xbc12d9fb	-0.008963103
106	0xbc9ae0a8	-0.018905953
107	0x3c74ef22	0.014949592
108	0x3b85c73f	0.00408259
109	0xbd6ac028	-0.05731216
110	0xbcc09eb1	-0.02351317
111	0xbd2a5aff	-0.041590687
112	0xbd623db3	-0.055234622
113	0x3c68fd13	0.014220494
114	0xbd262575	-0.040563066
115	0x3d13c434	0.036075786
116	0x3cd8c480	0.026460886
117	0x3c8c6b21	0.017140927
118	0xbbe4eadf	-0.0069860066
119	0x3d875088	0.06607157
120	0xbcf3898c	-0.029728673
121	0xbb99e40c	-0.0046963748
122	0xbbab6bcd	-0.0052313567
123	0x3c484843	0.01222426
124	0x3cd7f52f	0.02636203
125	0x3b3a71af	0.0028449108
126	0xbc356a54	-0.011072714
127	0xbb182dff	-0.0023220775
128	0x3ac51383	0.0015035722
129	0x3d5502e4	0.05200471
130	0x3d464d0e	0.04841333
131	0xbce89c0c	-0.028394721
132	0xbc1a67d9	-0.009424173
133	0x3d486c5e	0.048931472
134	0x3c2dfde1	0.0106196115
135	0x3c5392b8	0.012913398
136	0xbcbfdc44	-0.02342046
137	0xbc2d1614	-0.010564346
138	0x3d0dd78b	0.034629386
139	0x3c93f51a	0.01806121
140	0x3cd84df4	0.026404358
141	0x3d25e71d	0.04050361
142	0xbd2cb993	-0.042169165
143	0x3d31dc0b	0.04342274
144	0x3c17fa77	0.009276024
145	0x3d072399	0.032992933
146	0xbc786ecd	-0.015163136
147	0xbc48b555	-0.012250264
148	0x3c777c91	0.015105383
149	0x3d061788	0.032737285
150	0xbd795af8	-0.06087777
151	0xbcfb51e4	-0.030678697
152	0xbd3b804b	-0.045776647
153	0x3c86a116	0.016434234
154	0x3c754b67	0.014971591
155	0xbcca7688	-0.024714723
156	0x3d773c8b	0.060360473
157	0x3d3143f3	0.043277692
158	0x3cbcc21d	0.02304178
159	0xbd8501f5	-0.06494514
160	0xbceee491	-0.029161723
161	0xbd35aa89	-0.044352088
162	0xbd437a5e	-0.04772412
163	0x3b273734	0.0025515081
164	0xbcf7903a	-0.03022014
165	0x3d9a2e20	0.07528329
166	0xbd3a4d9b	-0.045484167
167	0x3cecdf64	0.028915115
168	0x3d472e91	0.048628394
169	0x3d87d01f	0.06631493
170	0xbcf6aacc	-0.03011074
171	0x3c8a2346	0.016862523
172	0xbd4a0c6e	-0.04932826
173	0xbd6f1fa6	-0.05837979

trunk.0.expand.norm.running_var f4 [174]
0	0x3f08c1bb	0.5342061
1	0x3f1956c5	0.59898025
2	0x3e4a03ec	0.19728059
3	0x3e700698	0.23440015
4	0x3eef4354	0.46731055
5	0x3f86f167	1.054242
6	0x3e3f4e0f	0.1868212
7	0x3e2dbf02	0.16967395
8	0x3f751d2d	0.95747644
9	0x3e9b78fe	0.30365747
10	0x3f95f6ff	1.1716002
11	0x3e0ee53c	0.13954633
12	0x3e5c70d4	0.21527416
13	0x3e55df6e	0.20886013
14	0x3f03a4ac	0.51423144
15	0x3f8fb6b7	1.1227635
16	0x3ea52e96	0.32262105
17	0x3ebb0c81	0.36532977
18	0x3f3e713c	0.7439153
19	0x3f15a0dc	0.58448577
20	0x3e8ff299	0.28114775
21	0x3f1af281	0.6052628
22	0x3efaa11b	0.4895104
23	0x3e827621	0.2548075
24	0x3eb5edd9	0.35533026
25	0x3e7f3018	0.2492069
26	0x3e690117	0.22754322
27	0x3ea74302	0.3266831
28	0x3f1e8d3a	0.61934245
29	0x3e3116d3	0.17293863
30	0x3e9639f7	0.293411
31	0x3f1322ea	0.5747515
32	0x3f15ada5	0.58468086
33	0x3eb4bd3d	0.35300627
34	0x3f19752e	0.59944427
35	0x3ea3c965	0.3198959
36	0x3ef087b7	0.46978542
37	0x3e89fe75	0.26951948
38	0x3eba80e9	0.36426476
39	0x3e24f365	0.16108473
40	0x3e8f1c21	0.27951148
41	0x3f771caf	0.9652814
42	0x3e1ac8c6	0.15115651
43	0x3eb99c25	0.3625194
44	0x3e4bd93e	0.1990709
45	0x3ecd0f99	0.40050963
46	0x3e8d0c21	0.27548316
47	0x3f67c80f	0.9053964
48	0x3fe919d9	1.8211013
49	0x3ec060c7	0.37573835
50	0x3f2ca242	0.67435086
51	0x3ecf3b6d	0.40475026
52	0x3e800f0e	0.25011486
53	0x3ec1c9e5	0.37849346
54	0x3ecd3714	0.40081084
55	0x3f121234	0.57059026
56	0x3f115861	0.5677548
57	0x3e926837	0.28595135
58	0x3e60ad0a	0.21941009
59	0x3ecc710e	0.39930004
60	0x3e8c5eb7	0.27416012
61	0x3e1e395d	0.1545157
62	0x3efda28b	0.49538073
63	0x3ea53751	0.32268766
64	0x3ebbf0ab	0.36707053
65	0x3f85bf48	1.0449
66	0x3e8f3d39	0.27976397
67	0x3e9d3896	0.30707234
68	0x3f2b29b8	0.6686053
69	0x3eb9383b	0.36175713
70	0x3f2acee4	0.6672194
71	0x3ec72858	0.38897967
72	0x3e2efece	0.17089388
73	0x3efbf0ab	0.49207053
74	0x3f6c9fd2	0.92431366
75	0x3f5d1fe4	0.86376786
76	0x3eb5958a	0.35465652
77	0x3eb8b0b9	0.3607233
78	0x3e934bdf	0.28768823
79	0x3e9dfa88	0.30855203
80	0x3ea7eff3	0.32800254
81	0x3ee33baf	0.44381472
82	0x3e4f6b92	0.20255879
83	0x3e5368e0	0.20645475
84	0x3f084859	0.53235394
85	0x3e5c99a2	0.21542981
86	0x3eb2206b	0.34790358
87	0x3e5ec09a	0.21753159
88	0x3e8d3c68	0.2758515
89	0x3f19bb43	0.60051364
90	0x3ef8099d	0.48444834
91	0x3f0f0990	0.55873966
92	0x3e245b2f	0.16050409
93	0x3ea4c16d	0.32178822
94	0x3e9a5e0d	0.3014988
95	0x3e2460a3	0.16052489
96	0x3e12e1b9	0.14343919
97	0x3f32e717	0.69883865
98	0x3f92ae63	1.1459469
99	0x3f584ae1	0.84489256
100	0x3e183951	0.14865614
101	0x3f07542f	0.5286283
102	0x3ea5a6d9	0.32353857
103	0x3f3110b7	0.6916613
104	0x3e9e6cc6	0.30942363
105	0x3ed6e1dd	0.41969195
106	0x3e38efc0	0.18060207
107	0x3e37172b	0.17879932
108	0x3e3ebdf6	0.18627152
109	0x3e12d16f	0.14337705
110	0x3fb8c11a	1.443393
111	0x3e772355	0.24134572
112	0x3f1b1a48	0.60586977
113	0x3e7fa5f8	0.24965656
114	0x3e76dc3b	0.24107449
115	0x3eebd2fb	0.46059403
116	0x3f11769f	0.56821626
117	0x3ec02216	0.37526006
118	0x3dc7b420	0.09751153
119	0x3ed5d767	0.417659
120	0x3f2e889e	0.6817721
121	0x3e848f26	0.25890464
122	0x3e75b08c	0.23993129
123	0x3eacd4d2	0.3375612
124	0x3f23384b	0.6375777
125	0x3dae5a23	0.08513286
126	0x3e9dc447	0.3081381
127	0x3eaab196	0.33338612
128	0x3dd7f684	0.10545066
129	0x3eac8657	0.33696243
130	0x3e6fcc94	0.23417884
131	0x3e9b73ff	0.30361935
132	0x3e93ae6a	0.28844005
133	0x3f347820	0.70495796
134	0x3e872871	0.26398042
135	0x3ea0b509	0.3138812
136	0x3e472575	0.19447882
137	0x3e29bb34	0.16575319
138	0x3e3487d0	0.17629933
139	0x3e73e07c	0.23816103
140	0x3ecce9c0	0.40022087
141	0x3f0b579c	0.54430556
142	0x3ea52fa8	0.3226292
143	0x3f0cdcb6	0.5502428
144	0x3ea32f7f	0.31872174
145	0x3e63b07a	0.22235289
146	0x3e1f9841	0.15585424
147	0x3ebcaecb	0.36852106
148	0x3e8b93f3	0.27261314
149	0x3ef1a282	0.47194296
150	0x3f055e70	0.52097225
151	0x3e9ab182	0.30213553
152	0x3eda16d8	0.42595553
153	0x3e986282	0.29762655
154	0x3f105b55	0.5638936
155	0x3eb7c77e	0.35894388
156	0x3eb61b7c	0.35567844
157	0x3efdffb1	0.4960914
158	0x3ec46b0f	0.3836293
159	0x3ee50c61	0.44736007
160	0x3e218f42	0.15777305
161	0x3f01f006	0.5075687
162	0x3ef97aea	0.48726588
163	0x3e7dae23	0.24773459
164	0x3e7e190c	0.24814242
165	0x3dce7858	0.100815475
166	0x3f5941cb	0.8486602
167	0x3f3268ef	0.69691366
168	0x3f270ab1	0.6525069
169	0x3f21b63a	0.6316868
170	0x3e807d45	0.25095573
171	0x3e44fb40	0.1923647
172	0x3e4c7cd4	0.19969493
173	0x3e235693	0.15950994

trunk.0.depthwise.linear.weight f4 [2, 2]
0	0xbf198693	-0.5997097
1	0xbe34ba2e	-0.17649147
2	0xbeb02f0d	-0.34410897
3	0x3f294192	0.6611568

trunk.0.depthwise.norm.weight f4 [174]
0	0x3f73fc47	0.9530682
1	0x3f793442	0.97345364
2	0x3f7e1491	0.9925013
3	0x3f75e1ee	0.96047866
4	0x3f7d41d3	0.98928565
5	0x3f787903	0.9705965
6	0x3f782ade	0.9694041
7	0x3f749e72	0.9555427
8	0x3f7c409c	0.98536086
9	0x3f76c95c	0.96401
10	0x3f759037	0.9592318
11	0x3f847b4b	1.0350126
12	0x3f74d004	0.95629907
13	0x3f73f43e	0.9529456
14	0x3f78525c	0.9700067
15	0x3f7282d5	0.94730884
16	0x3f838922	1.0276225
17	0x3f7b0057	0.98047394
18	0x3f77f10a	0.9685217
19	0x3f75cdec	0.96017337
20	0x3f6db46c	0.92853427
21	0x3f75ade5	0.95968467
22	0x3f7b8558	0.9825034
23	0x3f815d6a	1.0106633
24	0x3f7e79cd	0.99404603
25	0x3f76aec0	0.963604
26	0x3f7a0be9	0.97674423
27	0x3f76a030	0.96338177
28	0x3f783f4d	0.9697159
29	0x3f714c21	0.9425679
30	0x3f7bc68e	0.98349845
31	0x3f70601c	0.9389665
32	0x3f7e25a6	0.99276197
33	0x3f6d7b27	0.9276604
34	0x3f81e8ed	1.0149208
35	0x3f73e4a9	0.9527078
36	0x3f7ea83b	0.9947545
37	0x3f78eca1	0.9723607
38	0x3f7d087c	0.9884107
39	0x3f8393e1	1.0279504
40	0x3f8084a7	1.0040482
41	0x3f718a90	0.94352055
42	0x3f6ff893	0.9373867
43	0x3f79bd11	0.9755412
44	0x3f7e3331	0.9929686
45	0x3f79f574	0.97640157
46	0x3f7b54de	0.9817637
47	0x3f713e93	0.94236106
48	0x3f78305f	0.9694881
49	0x3f7707bf	0.96496195
50	0x3f7112c0	0.94169235
51	0x3f7c4f37	0.9855837
52	0x3f8029d7	1.0012769
53	0x3f7bb4b5	0.9832261
54	0x3f7c7eec	0.9863117
55	0x3f706b25	0.9391349
56	0x3f71fa45	0.94522506
57	0x3f848058	1.0351667
58	0x3f70774e	0.93932045
59	0x3f7f26c8	0.9966855
60	0x3f7bd7f2	0.9837638
61	0x3f6dfd7d	0.9296492
62	0x3f7b6b46	0.9821056
63	0x3f7335f6	0.9500421
64	0x3f7a9386	0.9788135
65	0x3f73a4c2	0.95173275
66	0x3f8476a7	1.034871
67	0x3f776427	0.96637195
68	0x3f767fde	0.9628886
69	0x3f737784	0.9510424
70	0x3f73a750	0.95177174
71	0x3f7e33e2	0.99297917
72	0x3f7db834	0.99109197
73	0x3f754b6c	0.9581821
74	0x3f7001b9	0.9375263
75	0x3f816972	1.0110304
76	0x3f83f85d	1.031017
77	0x3f72d318	0.94853354
78	0x3f779eef	0.9672689
79	0x3f831e51	1.0243627
80	0x3f6c38ea	0.92274344
81	0x3f7c4097	0.98536056
82	0x3f8c07a4	1.0939832
83	0x3f8250c2	1.0180895
84	0x3f794744	0.9737437
85	0x3f7d4cfb	0.9894559
86	0x3f8196e0	1.0124168
87	0x3f7fa78a	0.9986502
88	0x3f7d837c	0.99028754
89	0x3f723cc8	0.94623995
90	0x3f768e50	0.963109
91	0x3f71ecbd	0.9450186
92	0x3f73b896	0.9520353
93	0x3f7532ce	0.95780647
94	0x3f777f05	0.9667819
95	0x3f7fc2f4	0.9990685
96	0x3f831f06	1.0243843
97	0x3f74ce39	0.9562717
98	0x3f76f557	0.9646811
99	0x3f73804a	0.9511763
100	0x3f810c7d	1.0081936
101	0x3f79c93d	0.9757269
102	0x3f7cd15a	0.98756945
103	0x3f75d838	0.9603305
104	0x3f78af3f	0.97142404
105	0x3f73c2d6	0.9521917
106	0x3f7d26fd	0.98887616
107	0x3f765c89	0.9623495
108	0x3f787219	0.970491
109	0x3f8590b1	1.0434781
110	0x3f7c6a9c	0.98600173
111	0x3f7d5cb2	0.98969567
112	0x3f7c76f7	0.98619026
113	0x3f7fa97e	0.99868
114	0x3f7d238e	0.9888238
115	0x3f7908e6	0.972792
116	0x3f76676d	0.96251565
117	0x3f7de3c6	0.9917568
118	0x3f768048	0.9628949
119	0x3f751ad7	0.9574408
120	0x3f76c76f	0.9639806
121	0x3f6eee6f	0.9333257
122	0x3f7bd3ed	0.9837025
123	0x3f76b658	0.96371984
124	0x3f7d428c	0.9892967
125	0x3f7fa095	0.99854404
126	0x3f816134	1.0107789
127	0x3f70bf1c	0.9404161
128	0x3f7cac83	0.9870073
129	0x3f783ce5	0.9696792
130	0x3f7ebe38	0.99509
131	0x3f7c80bc	0.98633933
132	0x3f7ba1f1	0.9829398
133	0x3f72d123	0.9485037
134	0x3f6ef11f	0.9333667
135	0x3f79c1df	0.9756145
136	0x3f7b9ae1	0.982832
137	0x3f78d290	0.9719629
138	0x3f7b8e9f	0.982645
139	0x3f74b308	0.9558568
140	0x3f7a6a52	0.9781848
141	0x3f76e3c4	0.9644129
142	0x3f7919d2	0.97305024
143	0x3f7a5e20	0.97799873
144	0x3f7b2dcb	0.9811675
145	0x3f7f3c57	0.99701446
146	0x3f7d6b0e	0.9899148
147	0x3f750b10	0.95720005
148	0x3f78ac94	0.97138333
149	0x3f781620	0.9690876
150	0x3f7a6857	0.9781546
151	0x3f7acddf	0.97970384
152	0x3f81f0d2	1.0151618
153	0x3f828241	1.0196
154	0x3f771f8e	0.96532524
155	0x3f729468	0.947577
156	0x3f812ab2	1.0091155
157	0x3f77c705	0.96788055
158	0x3f7ce3a6	0.98784864
159	0x3f7f8843	0.99817294
160	0x3f797d75	0.9745706
161	0x3f74b16f	0.9558324
162	0x3f7e994f	0.9945268
163	0x3f709178	0.9397197
164	0x3f7d0536	0.98836076
165	0x3f7bfb1d	0.98430043
166	0x3f6f86da	0.9356514
167	0x3f72aeee	0.9479817
168	0x3f775264	0.96610093
169	0x3f78f664	0.9725096
170	0x3f736453	0.9507496
171	0x3f748632	0.95517266
172	0x3f75d8ce	0.9603394
173	0x3f7a9dcf	0.97897047

trunk.0.depthwise.norm.bias f4 [174]
0	0x3c50384b	0.012708734
1	0x3d82904c	0.06375179
2	0x3d033d93	0.032041144
3	0x3d7af6b7	0.06127044
4	0x3d4bf63d	0.049795378
5	0xbcfc1a1b	-0.030774167
6	0xbd732be5	-0.059368033
7	0x3c43416b	0.011917452
8	0x3d104ed0	0.03523141
9	0xbc91d0d9	-0.017799782
10	0xbd15ccdc	-0.036572322
11	0x3dc777f2	0.09739675
12	0xbcfbf6c5	-0.030757317
13	0xbc4de050	-0.012565687
14	0xbc90f543	-0.017695075
15	0xbcdb3d89	-0.02676274
16	0x3d06a6a8	0.03287378
17	0xbdfa5c81	-0.12224675
18	0x3c9b55d3	0.018961823
19	0xbbebd556	-0.0071970625
20	0xbcef69cf	-0.029225258
21	0xbd85adad	-0.06527267
22	0x3bffd27b	0.0078070736
23	0x3cd41365	0.025888154
24	0xbced51eb	-0.028969726
25	0xbd0615a6	-0.03273549
26	0xbd74bd40	-0.059750795
27	0x3b8a6859	0.004223865
28	0xbd9aea1b	-0.07564183
29	0xbc94502b	-0.018104633
30	0x3d11782e	0.035515003
31	0xbd1dc4d4	-0.038517788
32	0x3d57cf16	0.052687727
33	0x3bfd27f7	0.0077257114
34	0x3dbd255a	0.0923564
35	0x3cf9f7ad	0.030513609
36	0x3d8caf1b	0.06869336
37	0x3c8a2829	0.016864853
38	0x3cde97c1	0.027171971
39	0xbd1c7736	-0.038199626
40	0x3d6d85bf	0.05798888
41	0xbd479ace	-0.048731618
42	0xbd7e33e3	-0.0620612
43	0x3c1edf9d	0.009696868
44	0x3b77bc0b	0.0037801291
45	0x3d726374	0.059176877
46	0xbd3c3ee5	-0.04595842
47	0xbbadc616	-0.0053031547
48	0xbc687571	-0.014188156
49	0x3d0253e4	0.031818286
50	0xbd7745b4	-0.06036921
51	0x3d416047	0.047210958
52	0xbccd1fb3	-0.02503953
53	0x3d5b2b79	0.053508256
54	0xbceaa810	-0.028644592
55	0xbab0e460	-0.0013495795
56	0xbd9c14b5	-0.07621137
57	0x3dc8a1d5	0.09796492
58	0xbd9fdefd	-0.078062035
59	0x3cbf3989	0.023342865
60	0x3c87124b	0.016488215
61	0xbd1dace2	-0.038494952
62	0x3c364a60	0.011126131
63	0xbc3d4179	-0.011551254
64	0xbd0d80d9	-0.034546707
65	0xbd937687	-0.07200342
66	0x3d462b1d	0.04838096
67	0x3d0b43a0	0.03400004
68	0xbc9a4b43	-0.018834716
69	0xbc0c779a	-0.008573437
70	0x3c52d488	0.012868054
71	0x3d0b622c	0.03402917
72	0xba432a4b	-0.0007444962
73	0xbd6c4057	-0.057678547
74	0xbd1a2b06	-0.037638687
75	0x3d831dcc	0.06402168
76	0x3d83b1e4	0.06430414
77	0xbd15292f	-0.03641623
78	0xbae54f0f	-0.0017494875
79	0x3d8e0a88	0.069356024
80	0xbd54c14d	-0.05194216
81	0x3d3ee452	0.046604462
82	0xbd04077c	-0.0322337
83	0x3c5c99b5	0.013464381
84	0xbd0ade7a	-0.033903576
85	0xbd084138	-0.033265322
86	0x3cfc80ce	0.030823138
87	0xbd18c9ec	-0.037301943
88	0xbc6760af	-0.014122172
89	0xbb028d75	-0.001992074
90	0x3c5e7981	0.0135787735
91	0xbcdec7ae	-0.027194824
92	0xbcab88bc	-0.020939223
93	0xbc4f860c	-0.012666237
94	0xbd706f25	-0.058699746
95	0x3d4afae9	0.049555693
96	0x3c30c105	0.010788207
97	0xbce4ee94	-0.027945794
98	0x3cad683f	0.021167872
99	0xbc203b9c	-0.009779837
100	0x3ca3ab62	0.019979183
101	0x3d0bf6b6	0.03417083
102	0xbdf70a06	-0.12062459
103	0xba6dbe85	-0.0009069222
104	0xbcb66ff7	-0.022270186
105	0xbd10298f	-0.035195883
106	0xbc76aefb	-0.015056367
107	0xbc549478	-0.012974851
108	0xbdbafd1f	-0.0913031
109	0xbdbb82c7	-0.09155803
110	0x3ba6ef69	0.005094458
111	0xbd29f337	-0.041491713
112	0xbcb06f1c	-0.021537356
113	0x3d1d166a	0.038351454
114	0x3bff0ed9	0.0077837524
115	0xbb0f8eeb	-0.0021905254
116	0xbc70a279	-0.014687174
117	0xbc886c97	-0.016653342
118	0xbd2f2a6a	-0.04276506
119	0x3c805dcd	0.015669728
120	0xbd8af255	-0.067845024
121	0xbbbe78c7	-0.0058127376
122	0xbce9d3c1	-0.028543355
123	0xbd7249ad	-0.059152294
124	0x3d43f700	0.04784298
125	0x3cbf6245	0.023362288
126	0x3d5ec959	0.05439124
127	0x3bc4aba3	0.006001906
128	0x3b005d7d	0.0019586973
129	0xbd1481eb	-0.036256712
130	0x3c83ddc1	0.016096951
131	0x3d0cc252	0.034365006
132	0x3d042ca4	0.032269135
133	0x3ca5b1f7	0.020226462
134	0xbdb4c869	-0.08827288
135	0x3d96ba11	0.07359708
136	0x3c1a8552	0.0094312
137	0xbc153b99	-0.0091084475
138	0x3cbb3526	0.022852492
139	0xbc8a1d3f	-0.016859649
140	0x3cddae26	0.02706058
141	0xbc26a4c3	-0.010171118
142	0xbdc21187	-0.09475999
143	0x3bd6b771	0.0065526296
144	0x3d7bcab4	0.06147261
145	0x3d1bff9e	0.038085572
146	0x3d45d8c3	0.048302423
147	0x3d13ff92	0.036132403
148	0x3d29f161	0.041489962
149	0x3d06fd67	0.032956507
150	0xbccd8cdb	-0.02509158
151	0x3d234656	0.039862
152	0x3d88b0d3	0.066743515
153	0x3cb67430	0.0222722
154	0xbc7dc1f5	-0.0154881375
155	0xbbe171a8	-0.006880004
156	0x3d028b67	0.031871226
157	0x3cb19b5b	0.021680525
158	0x3d33e881	0.043922905
159	0x3caea145	0.021317134
160	0xbce1b895	-0.027553836
161	0xbdaaf785	-0.08347992
162	0xbdac6370	-0.08417404
163	0x3c308c18	0.010775588
164	0x3d55266b	0.05203859
165	0xbc0b3fe6	-0.008499121
166	0xbdab0693	-0.08350863
167	0xbd4a567b	-0.04939888
168	0xbc87ce59	-0.016577886
169	0x3ccb333b	0.024804702
170	0xbcd79eff	-0.026320932
171	0xbced8c61	-0.028997602
172	0xbd0a993d	-0.033837546
173	0xbb4abfc8	-0.0030937064
