minivilles/pretrained_3players.pt (torch, 873977 bytes, 140 tensors)

first_layer.linear.weight f4 [78, 78]
000000 da b9 97 3d 65 60 aa 3c 5d 7b 46 bc ca d9 03 bc
       0.07408495 0.020797918 -0.012114373 -0.00804753
000010 fa bc ef 3d 26 e2 1e bc c7 d3 d3 3d a7 06 40 3d
       0.11705966 -0.009697473 0.10343128 0.046881344
000020 91 85 69 bd bb 2e de 3c 7a 04 be bd bc ce 44 3d
       -0.057012144 0.027121892 -0.092781976 0.04804872
000030 a8 41 d4 3d 5f 4f c3 3b fd 90 04 3d a3 f6 9c 3d
       0.103640854 0.0059603895 0.032364834 0.0766423
000040 bc 17 8b 3d c1 d7 a0 bd 04 55 54 bd 60 78 81 ba
       0.06791636 -0.07853652 -0.05183889 -0.0009877793
000050 67 7b 9f 3c 95 9a b4 3c b5 21 1a bd c2 1a c9 3d
       0.019468023 0.022046367 -0.0376298 0.09819557
000060 b0 66 72 bc 9e 3f 75 bd be d7 85 3d 8e 8c 4b bb
       -0.01479499 -0.059875123 0.0653529 -0.003105912
000070 13 59 af 3c bc 8a b3 3d e4 e1 cd 3d fe fc e4 ba
       0.021404779 0.08766696 0.10052851 -0.0017470417
000080 3f c5 f8 3d 37 c4 e5 3d 5b ab 0d 3c 56 b0 e4 3c
       0.12146997 0.11219066 0.008646811 0.027916115
000090 4d ce 9e 3d 21 e1 e6 bd d7 5a b7 3d 98 0c 59 bd
       0.077541925 -0.11273409 0.08952873 -0.052990526
0000a0 5f 4d 93 bd 3e 5d 92 bd 98 80 cd bd d2 a1 84 3d
       -0.07192492 -0.07146691 -0.10034293 0.06476177
0000b0 e4 9b d3 3d 83 42 85 3d 96 3b 6a 3d 0b a4 74 bd
       0.10332468 0.06506827 0.05718573 -0.059726756
0000c0 e6 58 95 bd f6 07 79 bd e2 7b 13 3c 99 79 2a 3d
       -0.07292347 -0.060798608 0.009001704 0.04161987
0000d0 0d 3a 51 bd 03 7e a1 3d 57 17 9b 3d b0 21 ea bc
       -0.051080752 0.07885363 0.07572811 -0.028580517
0000e0 a9 34 ea 3c 60 9b 76 3c 32 6d 6c bc bb 6e c6 3b
       0.028589563 0.015051693 -0.014430331 0.0060556806
0000f0 2e fc 4a bd 47 5b 8d bd 54 43 88 bd b5 4d 9c bd
       -0.049556904 -0.069021754 -0.06653467 -0.07632009
000100 6f d4 d6 3b 87 b0 5b 3d 3a 3f fb 3d 8c 50 82 3e
       0.006556086 0.053635146 0.12267919 0.25452077
000110 7a 39 b0 3e b8 9f 17 3e 7d 0d 20 bd 48 02 fb ba
       0.3441885 0.14807022 -0.039075363 -0.001915046
000120 93 a2 0e bb cc bd 8b bd 4f da 43 3d 67 9d f2 3c
       -0.0021764382 -0.0682331 0.047815617 0.02961607
000130 5f 7f c8 bd 1f 7f c5 bd 7b be aa bd c5 8d 80 bd
       -0.09789919 -0.09643387 -0.083371125 -0.062770404
000140 61 77 08 be ac 7c 88 3c 65 33 70 bd 20 b8 97 3d
       -0.1332679 0.01666101 -0.058642764 0.07408166
000150 12 86 52 bd 16 3b 92 bd d4 46 a3 bd b1 c9 a3 bd
       -0.05139739 -0.07140176 -0.07972494 -0.07997454
000160 61 f6 f7 3c 80 d1 a4 3d 88 fc 11 3d 07 d7 a5 3d
       0.03026885 0.080477715 0.035641223 0.08097654
000170 92 d7 5d bd 79 1c bc bb af 3f f9 3d e4 d4 00 3d
       -0.054160662 -0.005740699 0.1217035 0.03145303
000180 eb 90 f5 3c dc 6e 1d 3c 71 09 8c bd 6d f2 8e bc
       0.029976329 0.0096089505 -0.06837738 -0.017449582
000190 cc cd 97 3d 8b e2 3f bd 9f 1b 4d bc 5c a5 88 bd
       0.074122995 -0.046846908 -0.012518792 -0.06672165
0001a0 08 7d 1f bd 2e b9 3b 3d 03 1c 20 bd 78 da ea 3b
       -0.0389376 0.045830898 -0.039089214 0.007167157
0001b0 d1 34 ad bb a0 ac a5 3d cb d9 92 3c f0 bd 26 bd
       -0.005285837 0.08089566 0.017926117 -0.040708482
0001c0 a1 08 a4 3d 71 5e c1 bd aa b0 aa 3d e7 38 48 3d
       0.08009458 -0.094418414 0.08334477 0.04888239
0001d0 2c 54 44 bd b8 06 cf bd e2 12 4d bd 2d 87 93 bb
       -0.047931835 -0.101087034 -0.050066836 -0.004502198
0001e0 37 12 07 3d 56 da ad bc a8 15 f8 3b 2b 8b a0 bd
       0.032976355 -0.021222275 0.007570941 -0.07839044
0001f0 f3 2f c9 3d 39 2d 69 3c 39 a5 16 bd b9 d4 4e 3d
       0.09823599 0.014231973 -0.036778662 0.050495837
000200 ef 2c cc 3c e7 9d 87 3d e6 47 79 3d e1 20 81 bd
       0.02492377 0.06621914 0.060859583 -0.06305099
000210 54 56 fb bb eb 12 ce bc 3c 76 00 bd 58 fb 62 3d
       -0.007670203 -0.025155505 -0.031362757 0.05541548
000220 15 26 e3 bd 87 51 a5 3d 0a 05 9e bd 4a 34 9e 3d
       -0.11091248 0.08072191 -0.07715805 0.07724817
000230 a4 75 ba 3d c0 7d b9 bd 73 2e 62 3d a2 44 ad 3d
       0.091044694 -0.09057188 0.05522008 0.08460356
000240 48 3a e5 bd bb a2 9e bd 51 f2 7b be dc 81 9c be
       -0.11192757 -0.07745882 -0.24604155 -0.30567825
000250 91 bd a2 bd be 31 79 bd ee 11 95 3d 90 06 14 3e
       -0.07946313 -0.060838453 0.072788104 0.14455628
000260 45 ea b1 3d 90 ce ba 3c d6 aa ad bc 87 e0 eb 3d
       0.086872615 0.022803575 -0.021199625 0.115174346
000270 cf bd 76 3d fb 49 88 39 cb 62 23 3e d9 0f 5a bd
       0.06023961 0.0002599506 0.15955655 -0.05323777
000280 28 39 9a 3d 55 bc b1 3c 71 f8 c5 3d 94 eb f9 bd
       0.07530433 0.021696249 0.09666527 -0.12203136
000290 47 6b 27 3d 9e a9 80 3d da 49 87 bc f9 ab ba 3d
       0.040873792 0.06282352 -0.016514707 0.091148324
0002a0 f3 61 17 bd 36 eb c3 3d 38 ae 4e bc 0f d7 7a 3d
       -0.036958646 0.09566347 -0.012614779 0.061240252
0002b0 b8 c2 09 3d c4 2a 23 3d c7 73 87 bd 9f 07 1b bd
       0.033632964 0.039835706 -0.0661388 -0.037849065
0002c0 b4 28 8a 3d 82 aa d0 3c 7b bd a8 bd 5f ba bd 3c
       0.06746045 0.02547193 -0.082392655 0.023160158
0002d0 c7 52 92 3b d8 22 8e bc 19 8d 16 bd 58 d4 82 3d
       0.0044654342 -0.0173506 -0.036755655 0.063881576
0002e0 66 4a a5 bd 39 3b 92 bd 6b 8c c2 bd ba bc 3a bd
       -0.08070831 -0.07140202 -0.09499439 -0.04559014
0002f0 61 b7 42 3d 9f ea a0 3c 17 4c 83 bd 53 23 9b 3d
       0.047538165 0.019643126 -0.06410997 0.07575097
000300 d6 1b 3d 3b 46 de 86 bd a5 2e 9f 3d 52 3b 8a bc
       0.0028855703 -0.06585364 0.077725686 -0.01687399
000310 04 e4 97 bd 5a 63 4b 3d 31 2d eb 3c bd 69 f6 3c
       -0.074165374 0.049655296 0.028708072 0.030079717
000320 0e de 27 bd c5 69 c1 bc 51 45 b2 3d 0f 92 b7 3d
       -0.040983252 -0.023610005 0.08704627 0.08963405
000330 45 0b e1 bb 82 8c 2d 3d b9 9d 01 bd 4e 0e 5c bd
       -0.0068677985 0.042370327 -0.031644557 -0.05372458
000340 9e aa 0e bd 5d 63 89 3d 08 4c ee 3c bf 59 3e bc
       -0.034830682 0.06708405 0.029088989 -0.011618077
000350 a9 7b 9b 3d 39 26 a1 bd 55 01 1b 3d cd 86 9f 3c
       0.07591946 -0.078686185 0.037843067 0.019473458
000360 4e 61 d4 3d 82 96 01 3e 4b 64 6c bd 26 f8 40 3d
       0.10370122 0.1265507 -0.057712834 0.047111653
000370 3f 2d c5 3b 00 77 b7 3d 00 22 94 bc 36 de b3 bd
       0.0060173566 0.08958244 -0.018082619 -0.08782618
000380 d4 67 84 be 62 51 81 be fc 44 14 3e ed 99 83 bd
       -0.25860465 -0.25257403 0.1447944 -0.064258434
000390 9f 62 a7 3d 52 ac dc bc e2 e0 a3 3d e4 fd c1 3d
       0.08173107 -0.026937637 0.08001877 0.09472254
0003a0 18 01 3a 3e 99 bf a6 3c 4d 85 dc 3d 6f e8 6c 3d
       0.1816448 0.020355033 0.107676126 0.057838853
0003b0 c7 29 1f bd 34 34 d2 3b 2a 52 9b bc 5d c3 9e bd
       -0.0388582 0.0064149145 -0.018960077 -0.07752106
0003c0 94 11 16 3d 63 2e 0a bd 87 c2 a2 3c 4c 4a ff 3d
       0.036637858 -0.033735644 0.019868148 0.12465343
0003d0 d9 67 b4 3d 89 dd d6 bc 0b 16 da bd ff 6c 1d 3c
       0.0880887 -0.026228683 -0.106487356 0.009608506
0003e0 14 b1 90 bc 7f 5d 8d 3d f4 1c 42 bd 18 11 ff 3d
       -0.017662562 0.069025986 -0.047390893 0.12454432
0003f0 3c b1 15 3d f3 f0 86 3d 44 03 68 3d 45 e6 65 3d
       0.036545977 0.06588926 0.05664374 0.056127805

first_layer.norm.weight f4 [78]
000000 38 6e 75 3f 0a 71 71 3f bb d4 7b 3f 79 98 78 3f
       0.95871305 0.9431311 0.98371476 0.97107655
000010 88 1a 74 3f c0 c2 7c 3f 5e b3 7c 3f d6 f2 84 3f
       0.95352983 0.98734665 0.9871119 1.0386608
000020 1d c9 76 3f 3f 55 7a 3f 05 50 82 3f 25 78 71 3f
       0.96400625 0.97786325 1.018067 0.9432395
000030 5b ae 78 3f 79 f5 79 3f d0 10 75 3f 06 de 77 3f
       0.97141045 0.97640187 0.9572878 0.96823156
000040 80 99 7a 3f 83 2f 75 3f bd 9f 73 3f 94 2d 72 3f
       0.9789047 0.9577562 0.95165616 0.94600797
000050 e9 15 6f 3f c1 e9 7a 3f 0a 7d 79 3f fd 77 78 3f
       0.9339281 0.9801293 0.9745642 0.9705809
000060 4e 62 77 3f c6 76 80 3f 78 a4 7d 3f ed 13 7d 3f
       0.96634376 1.0036247 0.99079084 0.9885853
000070 b0 e3 6d 3f fb b0 77 3f 89 00 7a 3f 32 c0 73 3f
       0.9292555 0.96754426 0.97657067 0.9521514
000080 6b 64 7a 3f b4 54 78 3f 40 15 72 3f 46 5d 76 3f
       0.97809476 0.97004247 0.94563675 0.96236074
000090 d8 43 89 3f a6 6e 6f 3f 6d 22 78 3f 17 ff 75 3f
       1.0723829 0.9352821 0.9692753 0.9609236
0000a0 96 71 72 3f bc dd 79 3f bf 84 71 3f 45 9c 6f 3f
       0.9470457 0.97603965 0.9434318 0.93597823
0000b0 6d 82 79 3f a4 3a 74 3f c7 b2 75 3f b1 2b 7c 3f
       0.9746464 0.9540198 0.9597592 0.9850417
0000c0 70 3f 76 3f d7 6e 73 3f 3f 80 73 3f e3 77 79 3f
       0.9619055 0.95091003 0.95117563 0.9744856
0000d0 58 9e 7d 3f 76 5c 78 3f 6d 46 78 3f ef 70 79 3f
       0.9906974 0.97016084 0.9698246 0.9743795
0000e0 eb be 7b 3f 33 9e 71 3f f2 ce 76 3f 37 0c 73 3f
       0.9833819 0.9438202 0.96409523 0.94940513
0000f0 08 37 7f 3f 85 c4 73 3f 45 34 73 3f b7 49 79 3f
       0.99693346 0.9522174 0.9500163 0.97378105
000100 fe 03 71 3f 98 4d 74 3f 1d 52 77 3f 59 8d 70 3f
       0.94146717 0.954309 0.9660967 0.9396568
000110 f5 01 7c 3f 67 c9 74 3f fb 71 77 3f f2 82 75 3f
       0.98440486 0.95619816 0.96658295 0.9590293
000120 af 7a 7a 3f ff ea 75 3f cb bd 7b 3f a2 e2 75 3f
       0.9784345 0.960617 0.98336476 0.9604894
000130 91 aa 73 3f ac cf 7d 3f
       0.9518214 0.9914501

first_layer.norm.bias f4 [78]
000000 a0 3f 03 bc 5b ed ea 3b d7 c1 80 3b 0f 96 05 bd
       -0.008010775 0.0071694083 0.0039293575 -0.03261381
000010 84 9e b6 3b f4 eb 4a 3d db f4 3e bb 43 9a dc bc
       0.0055730958 0.04954143 -0.0029137644 -0.026929026
000020 a8 ff 2f 3d c4 cd 9b 3c c5 f5 02 3d 61 44 34 3c
       0.042968422 0.019019015 0.031972665 0.011002631
000030 87 bd be 3c b8 cb 15 bd 1a 7d be ba 12 85 18 3d
       0.023283733 -0.036571234 -0.0014533133 0.03723628
000040 20 4c 0f bd 49 8d 2c 3d 76 7f fd bc ad b9 0b 3d
       -0.034984708 0.042126928 -0.030944567 0.03411262
000050 59 f8 fe 3c 6f 14 9e bc 33 df db bc 14 5b 47 bd
       0.03112428 -0.019296853 -0.026839828 -0.048670843
000060 df 0c 9e bb aa da 8a bc 3c 94 24 3c 08 0e 24 bd
       -0.0048233117 -0.01694997 0.010045107 -0.040052444
000070 b7 77 20 3d 4a 30 9a 3c 80 2d 6b 3c fd 52 43 bd
       0.03917667 0.018821854 0.01435411 -0.047686566
000080 f4 4d bc bc 08 69 fc bc 8b a8 fd ba 9e 95 f7 bc
       -0.02298639 -0.030811802 -0.0019352598 -0.03022271
000090 d7 d2 46 bd e6 c5 32 3c 4b b1 72 bc 99 d8 d1 3c
       -0.048540916 0.0109114405 -0.014812778 0.025615977
0000a0 34 03 c0 bc 06 56 80 3d 9e 03 41 bc 1f 7d 2f 3d
       -0.023439027 0.06266408 -0.011780648 0.042843934
0000b0 a9 14 e8 3c da 19 15 3c 93 50 94 3d bf 27 28 bd
       0.028330164 0.009100402 0.07241931 -0.04105353
0000c0 0f 5c c8 3c c7 17 8e bc 7b 9f 03 3d f6 a2 00 bd
       0.02445796 -0.017345322 0.032134514 -0.03140541
0000d0 88 02 69 3b 7c 2e 10 3d 86 bc 5d 3d 5c d5 9a 3c
       0.0035554487 0.03520058 0.054134868 0.018900566
0000e0 cf 42 8f bc 1c c8 5a 3c 9a 37 9e 3c f6 cd ce bc
       -0.017487912 0.013353374 0.019313622 -0.025244694
0000f0 a7 7a a6 bc dd 1d b9 bc 92 6c 4a 3c b6 99 93 3c
       -0.020322157 -0.022597248 0.012354987 0.018017631
000100 9c db 1e bd 74 8b 50 bd 8e df 99 bc b1 ad 80 bc
       -0.038783655 -0.050914243 -0.018783357 -0.015707823
000110 2b f4 7a bc 11 7c fd bc 87 af f8 bb 33 95 24 bd
       -0.015317003 -0.030942949 -0.007589284 -0.04018135
000120 92 17 80 3c f0 58 a3 bc aa cb 58 bd 12 a4 5e bc
       0.01563624 -0.01993987 -0.052928604 -0.013588922
000130 09 69 4d bc 9e 7f d3 3c
       -0.012537249 0.025817689

first_layer.norm.running_mean f4 [78]
000000 b2 d3 5b 40 29 6c e8 bf 46 b3 54 40 8a a1 aa 40
       3.4347959 -1.8158008 3.323442 5.332219
000010 47 66 f7 3f b3 dd 67 bf df 7b 80 c0 d7 a5 c8 bf
       1.9328088 -0.9057266 -4.015121 -1.567561
000020 19 74 89 bf 63 47 28 3f a2 23 63 bf f7 ba 1c c0
       -1.0738555 0.6573393 -0.88726246 -2.4489114
000030 52 86 92 c0 77 a5 4f 40 48 1a 36 40 ef ab f9 bf
       -4.5788965 3.2444742 2.845354 -1.9505595
000040 2b b2 8d bf 0d bd 1a c0 57 6b 3c bf 99 98 14 40
       -1.1069998 -2.4177887 -0.7360129 2.3218138
000050 2e 05 90 3f 8f 41 e6 bf b7 37 e8 bf 88 3c 28 40
       1.1251581 -1.7988757 -1.8142003 2.6286945
000060 63 c3 3a be 9b 89 e4 3f 52 44 e1 bf 18 a3 be 3f
       -0.18238597 1.7854494 -1.7598975 1.4893522
000070 53 b5 2b c0 91 6d 0b c0 fc 9e 10 40 15 1c a7 bf
       -2.6829422 -2.1785624 2.2597036 -1.3055445
000080 c8 a4 ea 3f a2 4f 53 c0 d0 5a fc 3f ae 6f a9 be
       1.8331537 -3.3017354 1.9715214 -0.33093017
000090 33 bb 09 40 45 73 db 3e ae 8e a5 3f 07 07 8f 40
       2.1520507 0.4286138 1.2934167 4.469608
0000a0 08 b8 d1 bf 0f 15 3e 3e 38 79 4e c0 48 6f 5e 40
       -1.6384287 0.1856272 -3.2261486 3.475542
0000b0 f5 6a 75 c0 8f 99 8b 3f 72 a0 3f 3f af 93 46 c0
       -3.8346531 1.0906237 0.74854195 -3.102764
0000c0 34 82 31 40 90 a5 19 40 ee 44 00 c0 78 76 ab 3f
       2.773572 2.4007301 -2.0042071 1.3395529
0000d0 c0 e5 48 3f 5e 6f 20 bf d7 19 72 be dc ed 09 3f
       0.7847557 -0.6266993 -0.2364267 0.5387857
0000e0 78 91 f8 3f fc c7 f0 be 4e c5 c5 bf 1c ee 8a 40
       1.9419394 -0.47027576 -1.5450838 4.341566
0000f0 00 6f c2 bc d0 a1 34 bf a1 a6 86 bf af 26 29 40
       -0.02373457 -0.70559406 -1.0519601 2.642986
000100 18 7b 07 bf b4 70 80 40 77 79 12 c0 98 ea 06 c0
       -0.529222 4.0137577 -2.2886636 -2.1080685
000110 04 6f de 3e f3 5c 43 40 5b 2f fb 3e a9 0d 05 c0
       0.43444073 3.0525482 0.49059567 -2.0789587
000120 d6 46 0f 40 cf fa 92 3f 68 d2 61 3f d8 93 15 be
       2.2386985 1.1482791 0.8821168 -0.14607179
000130 4b a8 58 40 5f 73 47 3f
       3.3852718 0.7791042

first_layer.norm.running_var f4 [78]
000000 e0 e2 9d 3f 45 e7 6d 40 4b 0d eb 3f 9d 37 16 41
       1.2334862 3.7172406 1.8363432 9.388577
000010 ea 47 c6 40 95 f4 39 3f 5d b1 e6 3f 42 39 e6 3e
       6.1962786 0.7263883 1.8022877 0.4496556
000020 4e 02 f3 3f 2e 1a 17 40 0a a2 57 3e 1f b7 be 40
       1.8985078 2.360973 0.21057907 5.9598536
000030 ce 14 d5 3f b1 d3 0c 40 d7 4e 77 40 c2 2b b7 3f
       1.6646974 2.2004206 3.864187 1.4310229
000040 b5 f3 0d 40 0e b8 ba 40 72 13 23 40 ca 85 e3 3f
       2.2179997 5.8349676 2.5480618 1.7775204
000050 e5 ff 9a 40 e9 a0 23 40 8c e6 58 3f 87 c7 0e 40
       4.843737 2.5566962 0.84726787 2.2309282
000060 cc 96 cb 3f b1 b3 93 3e 3d 6c 8d 3e 46 fe 63 3e
       1.5905395 0.2884803 0.27621642 0.22264966
000070 56 e0 60 40 34 52 3a 3f 68 47 8c 3f 08 f4 03 3e
       3.5136924 0.7278168 1.0959291 0.1288606
000080 54 c3 13 40 b4 14 40 40 65 0f 05 3f a9 aa 5a 40
       2.308797 3.0012636 0.51976615 3.4166663
000090 05 d3 63 3e 19 c8 e2 3f 68 05 f9 3f d2 ad a5 40
       0.22248466 1.7717315 1.9454775 5.1774683
0000a0 e0 f2 e3 3f bf 02 cf 3f d7 c0 8f 3f 20 8c 12 41
       1.7808495 1.6172713 1.1230725 9.15921
0000b0 8d c6 0c 40 b3 72 83 3f d3 22 8a 3f ee 0c 16 40
       2.1996186 1.0269378 1.0791878 2.3445392
0000c0 8e d8 a6 40 eb 8c ff 3f 82 5a 88 3f 73 27 4d 3f
       5.213935 1.996488 1.0652621 0.8013832
0000d0 48 71 d0 3f e9 77 01 40 88 74 a1 3f 5f f7 e7 3f
       1.6284571 2.0229437 1.2613688 1.8122367
0000e0 3e 22 18 3f 8d 18 8a 40 d5 b0 c5 3f 34 f8 36 40
       0.5942725 4.315497 1.544459 2.858899
0000f0 7f 06 48 3f 0d 65 57 40 b3 4e c0 3f 69 1b 57 3f
       0.7813491 3.3655427 1.5024017 0.840262
000100 b1 21 7b 40 59 b5 90 40 ed 74 e5 3f 6b 15 e2 3f
       3.9239314 4.522137 1.7926308 1.7662786
000110 2f 1a eb 3e 10 1e cb 40 bc 4f 20 3f 4e 0a 16 40
       0.45918414 6.3474197 0.62621665 2.344379
000120 61 73 63 40 b6 30 80 3f cd 26 27 40 f7 b9 99 3f
       3.5539172 1.0014865 2.6117432 1.2009877
000130 5d f4 b4 40 59 1d 61 3f
       5.6548295 0.87935406

trunk.0.expand.linear.weight f4 [234, 78]
000000 62 32 27 bc 6d 99 17 3d 43 9d 6a 3d 83 52 b3 bc
       -0.010204883 0.037011553 0.057278883 -0.02188993
000010 ab ac fd 3d 35 41 df bd 84 63 9c bd c0 d9 f7 bd
       0.123864494 -0.10901109 -0.076361686 -0.121020794
000020 da 2a a3 bc 51 4a 95 bd a6 11 dd bd a9 b6 e9 bb
       -0.019917894 -0.07289565 -0.10794382 -0.0071323705
000030 06 2c 7a 3d 0e 79 7f 3d e4 57 fb 3d 29 86 5f bd
       0.06107714 0.062371306 0.12272623 -0.054571304
000040 85 da 02 be e0 58 d1 3d 97 11 85 3c 4c bf cc bd
       -0.12778671 0.1022203 0.016243739 -0.099974245
000050 7c b4 77 bd 8d 20 f4 3c 2b 0d 1a bd 21 d3 29 bd
       -0.060474858 0.029800678 -0.037610214 -0.041461114
000060 a0 26 0f bc 88 03 2c bd f9 46 d6 3d 7b 26 99 bc
       -0.008737236 -0.041995555 0.10462756 -0.018695107
000070 97 21 2d bd 8d 4f 4d 3b db 58 4f 3d 76 4d 46 bd
       -0.042268362 0.0031327934 0.05062185 -0.048413716
000080 d7 c9 8b 3d 28 6b 70 3d 84 31 40 bd 30 64 fc 3d
       0.06825607 0.058695942 -0.04692222 0.12323797
000090 6f fc ad 3d 38 d8 a8 bd ef ef c7 3d 1a 0f cd bc
       0.084954135 -0.082443655 0.097625606 -0.025031615
0000a0 0a e4 99 bd 2b e7 f6 bd 24 6b a1 3b 28 bb 9d 3d
       -0.07514198 -0.120558105 0.0049261022 0.07701713
0000b0 9a 1b 31 bd e4 bb e0 3c 32 0b 29 3c f9 ff 39 3d
       -0.043239214 0.027433343 0.010317611 0.04541013
0000c0 43 36 25 3d e5 48 5c bd f1 e0 ed bd 26 96 71 3d
       0.04033495 -0.053780455 -0.1161517 0.058981083
0000d0 68 6c 8e bd 31 bd 4e bc 7a d4 4a bd 68 47 d2 3d
       -0.069542706 -0.012618349 -0.04951904 0.10267526
0000e0 0b d0 8e 3c 41 5b b1 bd 37 36 ea 3c c2 5e a6 bd
       0.017433187 -0.086599834 0.028590305 -0.08123542
0000f0 d3 18 ba 3d 46 4b 66 3d 24 77 5d bd 84 73 9e bc
       0.09086766 0.05622413 -0.0540687 -0.019342192
000100 fc 2c b2 bc d2 fe dd 3b 29 cf bc 3c 4a 10 bf 3d
       -0.021749966 0.0067747617 0.023048 0.09329279
000110 56 23 db bc f5 91 9d 3d 9f 19 9f bd b1 7d d7 bd
       -0.026750248 0.07693855 -0.07768559 -0.105220206
000120 00 23 a1 3d 41 e5 54 3d 23 58 51 bc 27 e9 a1 3d
       0.07868004 0.051976446 -0.012777361 0.079057984
000130 26 05 08 3d e4 9c be 3d 7a e0 9a 3d 0a ed a7 3d
       0.033208035 0.09307268 0.07562347 0.081995085
000140 96 b1 29 bd 4d b8 1e 3d 66 58 be bd 1e fc 7f 3d
       -0.041429125 0.03874998 -0.092942044 0.062496297
000150 70 db d7 3d e3 6b aa bc b3 cd 7d 3a ae ee ae bd
       0.10539901 -0.020803398 0.00096818357 -0.08541618
000160 04 d2 1e bb c7 81 c2 3a ce ac db 3d 17 10 04 be
       -0.0024234066 0.0014839702 0.10726319 -0.12896763
000170 c1 d0 ef bc cd 6e b0 3d 8c db a6 bc 6b db ae bd
       -0.029274346 0.086148836 -0.02036836 -0.085379444
000180 be d7 ae 3c e0 5e d8 3c 30 c8 56 bc dc ea 17 3d
       0.021343108 0.026412427 -0.013109252 0.037089214
000190 4c f2 98 bc 9f 00 03 3d a4 c9 56 bd 2f f6 b1 bd
       -0.018670224 0.031983014 -0.052438393 -0.08689534
0001a0 72 5a b0 bd a2 a3 90 3d f4 ea 8e 3d 56 8d 85 3d
       -0.08611001 0.070624605 0.069784075 0.06521098
0001b0 8d 0b 9c 3d ae 1e 30 bd c4 74 f0 3c 6d cc ad bd
       0.07619391 -0.04299801 0.029352553 -0.08486257
0001c0 eb c7 f5 3c 85 1c 27 3d aa 12 58 3d 3b dc b9 bd
       0.030002555 0.040798683 0.052752174 -0.09075209
0001d0 85 88 91 bd 6e 31 c8 3d 14 f1 a3 3d 26 91 8c 3d
       -0.07106117 0.09775053 0.080049664 0.06863622
0001e0 73 60 23 bd f1 47 21 3d cf 54 8b 3c fe 5e 97 3d
       -0.039886903 0.03937525 0.017008213 0.07391165
0001f0 d4 2b 29 bd ef ad c3 3d 01 8b 4e bd 2c 80 df bc
       -0.041301563 0.095546596 -0.050425533 -0.027282797
000200 fd 36 8d 3d 10 d2 e7 bd 06 df b6 bd ae 6b 6e bd
       0.06895254 -0.11319363 -0.08929257 -0.05820816
000210 97 71 33 bd 69 bd ec bc 44 c5 9b 3b 36 9d a1 3d
       -0.0438095 -0.028898912 0.0047537405 0.07891314
000220 bd 16 90 3d f2 75 90 bd d9 1a af 3c d5 5a 15 bd
       0.07035587 -0.07053746 0.021375107 -0.036463577
000230 07 8f 91 3c 33 73 7d bd a8 7c 92 3c 3b 5e 03 3d
       0.017768396 -0.06187744 0.017881706 0.032072287
000240 22 a6 82 3d 38 6c 9f bd 5d 03 44 3d e1 99 2d 3c
       0.063793436 -0.07784313 0.04785477 0.01059577
000250 68 8b dc bd 1a 4c 24 3d 4f 47 df bb 5b 2e da 3b
       -0.10768777 0.04011164 -0.0068139206 0.006658358
000260 a9 78 f3 bd 9d 54 f4 bd 6a 6a 09 3c ee 75 8b 3d
       -0.118882485 -0.11930201 0.0083871875 0.06809603
000270 28 2f 24 bd 50 37 e7 3c 95 fd 42 bc 96 56 6a bd
       -0.040084034 0.028224617 -0.011901279 -0.05721148
000280 54 9b 6a bd ca b6 f4 3d 51 db eb bd 82 de 28 bd
       -0.05727704 0.11948927 -0.11516441 -0.041227825
000290 ad e2 1a bd 82 e1 ed 3c a8 34 ff bd a3 4e b2 bd
       -0.03781383 0.029038195 -0.12461215 -0.08706405
0002a0 fd 81 1b 3c 5b db c7 bd b2 96 14 bb a9 98 8f bc
       0.009491441 -0.097586356 -0.002267283 -0.017528849
0002b0 32 e2 5b bd 9c 02 f3 bd 1a 62 89 3d de ee da bb
       -0.053682514 -0.11865732 0.067081645 -0.006681307
0002c0 c2 da a2 bd 5c 06 aa b9 61 2f c0 3d 30 81 a5 bd
       -0.07951881 -0.00032429665 0.09384037 -0.08081281
0002d0 ad fe d7 bc cc 5f 22 bd fd af f3 3d 51 d8 12 bc
       -0.026366556 -0.03964214 0.118988015 -0.008962707
0002e0 17 81 1f 3c 2b 89 07 bd 0b 3c 25 bd 18 ec d7 bb
       0.009735367 -0.033089798 -0.040340465 -0.006589424
0002f0 15 ab 83 3d f9 71 ba 3d 3a d3 35 3d 4a 1c 9e bd
       0.06429116 0.0910377 0.044390894 -0.077202395
000300 6d dd 25 be 5a ae df 3d e0 96 ee bc 9e d2 17 bd
       -0.16197748 0.10921927 -0.029124677 -0.037066095
000310 38 c8 c3 bc 5c 29 1b 3d 94 75 b9 bd 85 d3 b7 bd
       -0.023899183 0.03788124 -0.090556294 -0.08975891
000320 c0 42 f4 bd 88 8c ba 3d 96 9e fa 3c 51 5b bb 3a
       -0.11926794 0.091088355 0.030593198 0.0014294182
000330 3d cb 94 bc 5c ee 43 ba 4f 02 ab bd d9 37 e8 bd
       -0.018163318 -0.0007474178 -0.0835005 -0.11338777
000340 c6 c1 69 3d 59 d4 29 3d 29 3c 69 bd dc 7d 9d bd
       0.057069562 0.041462276 -0.05694214 -0.076900214
000350 bb 3a 44 bb d9 6f e6 bd c5 e4 8f bd 1e 8a d6 3d
       -0.0029942233 -0.11251802 -0.07026056 0.104755625
000360 2c 1b 94 ba 3c a3 cb bc 6f b0 45 bc 4b 11 88 3d
       -0.0011299602 -0.02485811 -0.012065991 0.06643923
000370 ca 9d 1f 3d 78 22 a5 3d 3b 0b 9f 3d c8 ef 04 3c
       0.03896884 0.08063215 0.07765814 0.008113809
000380 10 02 83 3b 04 c9 c6 3d 52 5f a5 bd 72 a8 c9 3d
       0.0039980486 0.097063094 -0.080748215 0.098465815
000390 84 92 97 bd d5 f2 8a bd 02 4e d2 3d 1f 46 8b 3c
       -0.074009925 -0.06784598 0.10268785 0.01700121
0003a0 7c 22 57 bd 89 a2 a8 3c 4f f2 06 bd e1 35 a9 bd
       -0.05252312 0.020585315 -0.032945927 -0.0826223
0003b0 5f b9 86 3d 68 a6 0c bb 26 a5 df 3d 89 c5 c6 bd
       0.065783255 -0.002146149 0.109201714 -0.097056456
0003c0 88 2b 48 bd 37 19 49 3d 14 2d b6 bd 9c 53 a9 bd
       -0.04886964 0.049096312 -0.08895317 -0.082679
0003d0 77 f4 9f bd c2 6e 6f 3d b8 06 fa bd 97 be cd 3c
       -0.078103 0.058455236 -0.12208313 0.025115294
0003e0 aa 9a ed 3d 80 a9 a7 3d 66 ff 40 bd 83 6a a9 3d
       0.116017655 0.081866264 -0.047118567 0.082722686
0003f0 41 0b 31 bd f7 7b 8c bd 2e 3d 12 3d f2 43 1e 3d
       -0.043223623 -0.06859582 0.035702877 0.038639016

trunk.0.expand.norm.weight f4 [234]
000000 5b 73 70 3f e9 b4 7e 3f 83 d6 75 3f f5 3d 7f 3f
       0.9392602 0.99494797 0.96030444 0.99703914
000010 2c cf 7c 3f 10 3d 7b 3f bc cd 74 3f f0 8c 7b 3f
       0.9875362 0.9814005 0.95626426 0.9826193
000020 4e 52 81 3f 5d d6 6d 3f 55 37 84 3f 6d 39 76 3f
       1.0103242 0.9290522 1.0329386 0.96181375
000030 03 2c 7d 3f 65 f7 79 3f 1b 6c 80 3f d7 8a 7a 3f
       0.9889528 0.9764312 1.0032991 0.978681
000040 f5 58 81 3f 6f 78 83 3f 7c 69 7a 3f 5c 1b 80 3f
       1.0105273 1.0271128 0.97817206 1.000835
000050 af 3c 80 3f 85 6d 76 3f c7 3b 7a 3f 2f 53 82 3f
       1.0018519 0.96260864 0.97747463 1.0181636
000060 0b fa 75 3f 0f a0 7d 3f 5d 87 7d 3f 9a cf 77 3f
       0.9608466 0.99072355 0.9903467 0.9680115
000070 c7 f2 7b 3f 91 b7 7b 3f bd 94 75 3f 7e 39 7c 3f
       0.98417324 0.98326975 0.9593008 0.98525226
000080 06 59 7b 3f 28 0a 71 3f c7 fb 78 3f b6 78 73 3f
       0.98182714 0.9415612 0.9725918 0.95106065
000090 53 72 7e 3f 36 9c 7f 3f 63 4e 7c 3f 02 80 78 3f
       0.99393195 0.99847734 0.9855711 0.97070324
0000a0 4c ce 7a 3f e1 f4 7f 3f f7 df 77 3f 46 1d 7f 3f
       0.97971034 0.9998303 0.9682612 0.9965404
0000b0 9e e7 77 3f f3 e3 71 3f 6b f4 73 3f 22 66 7a 3f
       0.96837795 0.9448845 0.9529483 0.9781209
0000c0 de 13 7b 3f eb 5e 76 3f c8 ab 7d 3f 98 e3 77 3f
       0.9807719 0.96238583 0.9909024 0.96831656
0000d0 e1 74 7c 3f 7e 40 7c 3f 58 68 79 3f d1 ea 7e 3f
       0.98615843 0.9853591 0.9742484 0.9957705
0000e0 c1 1d 7a 3f e2 67 7a 3f f4 2d 78 3f b2 72 73 3f
       0.9770165 0.9781476 0.9694512 0.95096886
0000f0 89 73 83 3f b7 60 82 3f 11 f6 7f 3f 61 6a 7e 3f
       1.0269634 1.0185765 0.9998484 0.9938107
000100 f0 fc 63 3f de 6e 78 3f 3f 88 7c 3f 02 30 77 3f
       0.89057827 0.9704417 0.98645395 0.9655763
000110 03 0e 7d 3f c4 02 76 3f 1d b5 82 3f 14 fb 79 3f
       0.98849505 0.9609797 1.0211521 0.9764874
000120 76 7a 7b 3f 46 3f 7b 3f 7b 9b 7c 3f a1 11 79 3f
       0.98233736 0.9814342 0.98674744 0.97292525
000130 7a a4 80 3f 48 d1 7b 3f db 65 81 3f f6 0f 76 3f
       1.0050194 0.9836621 1.0109209 0.96118104
000140 e4 1f 77 3f b6 bc 82 3f c4 c2 76 3f 28 1b 7b 3f
       0.96533036 1.021384 0.9639094 0.9808831
000150 6a 4b 7c 3f a4 0c 82 3f 52 fd 6f 3f de 31 83 3f
       0.9855257 1.0160108 0.9374591 1.0249593
000160 50 59 84 3f 17 55 78 3f 53 2e 82 3f ce cd 82 3f
       1.0339756 0.97004837 1.0170387 1.0219057
000170 e7 97 81 3f 90 90 79 3f 2f 63 81 3f 65 b4 81 3f
       1.0124482 0.9748621 1.0108393 1.0133177
000180 47 cc 7c 3f 21 dd 82 3f ba 2d 6f 3f 12 5c 74 3f
       0.987492 1.0223733 0.9342915 0.9545299
000190 23 9d 74 3f 74 e9 79 3f c9 20 82 3f bf 91 77 3f
       0.9555227 0.97621846 1.0166255 0.96706766
0001a0 c4 6c 7d 3f 01 72 7f 3f be 99 79 3f 30 4d 80 3f
       0.9899409 0.9978333 0.97500217 1.0023556
0001b0 2b 96 7e 3f 95 d7 7f 3f 52 8c 76 3f 9f f0 7b 3f
       0.9944789 0.9993833 0.9630786 0.98414034
0001c0 6d 5d 7a 3f e1 fa 79 3f 81 3c 78 3f cd 13 80 3f
       0.97798806 0.97648436 0.9696732 1.0006043
0001d0 c7 62 76 3f 9b 07 7c 3f 39 8c 7d 3f a9 25 82 3f
       0.9624447 0.98449105 0.9904209 1.0167743
0001e0 16 48 6e 3f 2a a6 80 3f 92 66 77 3f 76 9c 7e 3f
       0.93078744 1.0050709 0.96640885 0.9945749
0001f0 d6 b3 74 3f f3 b8 73 3f 6a 44 7d 3f fb 89 78 3f
       0.9558691 0.95204085 0.98932517 0.9708554
000200 2a 74 83 3f a5 6c 7e 3f a3 b3 7a 3f 02 f2 6b 3f
       1.0269825 0.9938453 0.97930354 0.9216615
000210 85 fb 75 3f 69 13 79 3f fb 8e 6e 3f 55 b6 7b 3f
       0.96086913 0.9729524 0.9318692 0.9832509
000220 c2 92 81 3f 77 1e 82 3f 7d c4 7e 3f 6e 5e 78 3f
       1.0122912 1.0165547 0.9951857 0.9701909
000230 1e cf 76 3f 8b 1e 7c 3f 0a ea 80 3f c0 3b 7b 3f
       0.96409786 0.98484105 1.0071423 0.98138046
000240 98 c5 7a 3f 66 cd 7c 3f 30 d8 76 3f df 10 74 3f
       0.97957754 0.98750913 0.96423626 0.95338243
000250 63 2b 81 3f 70 d0 7a 3f 0d 92 80 3f af 71 7c 3f
       1.0091366 0.979743 1.0044571 0.9861097
000260 9b 3d 7c 3f 7e 18 79 3f 03 e7 78 3f db 43 7a 3f
       0.985315 0.97303 0.97227496 0.9775979
000270 33 91 77 3f 08 76 7d 3f 69 b4 82 3f 61 de 81 3f
       0.9670593 0.99008226 1.0211307 1.014599
000280 3e 31 71 3f 75 ff 7f 3f 81 6b 7f 3f 88 3c 78 3f
       0.9421576 0.9999917 0.9977341 0.96967363
000290 90 73 7e 3f c0 67 7c 3f 0b b7 79 3f 49 ef 7b 3f
       0.99395084 0.9859581 0.97544926 0.98411995
0002a0 23 7f 76 3f 91 88 77 3f 58 93 77 3f 21 a2 82 3f
       0.96287745 0.9669276 0.96709204 1.0205728
0002b0 5e 33 7e 3f 70 ef 7b 3f 07 61 81 3f ab 7d 78 3f
       0.9929713 0.9841223 1.0107735 0.97066754
0002c0 4e 39 74 3f 55 b5 75 3f 78 84 6f 3f b3 88 7f 3f
       0.9539994 0.95979816 0.93561506 0.9981796
0002d0 61 22 78 3f cb f6 77 3f 4e ae 71 3f d4 66 74 3f
       0.9692746 0.9686095 0.9440659 0.95469403
0002e0 40 11 7c 3f d4 13 7e 3f 8e 08 7c 3f 0c ab 7a 3f
       0.9846382 0.99249005 0.98450553 0.97917247
0002f0 19 13 70 3f 31 c3 82 3f 2d a0 75 3f 54 c5 6c 3f
       0.9377914 1.0215818 0.95947534 0.924886
000300 25 aa 7b 3f 5b 59 80 3f 3b 91 7d 3f 56 8a 78 3f
       0.98306495 1.0027269 0.9904973 0.97086084
000310 11 c4 7a 3f 13 90 7b 3f f7 8b 85 3f b7 65 79 3f
       0.97955424 0.98266715 1.0433339 0.9742083
000320 b8 d9 80 3f 28 c3 71 3f 3f df 7c 3f 83 98 7b 3f
       1.0066442 0.9443841 0.98778147 0.9827959
000330 41 e2 75 3f 85 c5 78 3f 89 12 80 3f fa d8 81 3f
       0.9604836 0.9717639 1.0005656 1.0144341
000340 13 aa 74 3f 81 55 84 3f 54 63 75 3f 5a ec 80 3f
       0.9557201 1.0338594 0.9585469 1.0072129
000350 f4 9e 7c 3f 42 f4 83 3f d9 ee 75 3f a0 44 73 3f
       0.98680043 1.0308917 0.9606758 0.9502659
000360 b2 2d 80 3f 8a 3d 76 3f 8f da 74 3f 4e 27 83 3f
       1.0013945 0.9618765 0.95645994 1.024637
000370 e6 e7 7b 3f 84 37 7f 3f e4 b3 7a 3f d3 83 80 3f
       0.98400724 0.99694085 0.9793074 1.004023
000380 1d 5c 7d 3f 47 3f 77 3f 7d 08 7c 3f 2f 99 7e 3f
       0.9896868 0.9658093 0.9845045 0.9945249
000390 33 cc 72 3f 72 80 7b 3f 8e 17 74 3f ff 4b 7c 3f
       0.94842833 0.98242867 0.9534844 0.9855346
0003a0 4b b0 7a 3f c3 49 74 3f
       0.9792525 0.9542505

trunk.0.expand.norm.bias f4 [234]
000000 07 ec da bc 94 e9 78 3b 37 0c d7 3c 63 f4 a9 39
       -0.026723875 0.003798102 0.026250942 0.00032416274
000010 5e 1a 9e 3b f1 02 4e bc bb 7c c8 3c 0b 15 86 bc
       0.0048249206 -0.0125739435 0.024473539 -0.016367456
000020 6e 88 a0 39 99 56 4f 3d 56 cc 92 bb a0 57 46 bc
       0.00030619226 0.050619695 -0.004479925 -0.012105852
000030 ed 09 15 bc 54 50 9f bc 6a ec c3 bb 09 d5 26 bc
       -0.009096605 -0.019447483 -0.0059791105 -0.0101826275
000040 90 52 98 bc 72 e6 a2 3b da a0 f0 bc 5a 0f 78 3c
       -0.018594056 0.004971319 -0.029373575 0.015140379
000050 35 57 6e bb 1c a1 12 3d 45 31 a9 bb 5c f8 82 ba
       -0.0036367897 0.035798177 -0.005163344 -0.000999223
000060 e2 41 a4 3c 0d 5a d1 3b 4e cf 98 bc de 98 82 3c
       0.020050947 0.0063889087 -0.018653538 0.015942033
000070 23 e2 50 bb 58 7d a0 bb 9f 78 0c bd 4e 96 8e bb
       -0.003187307 -0.0048977546 -0.03429472 -0.004351414
000080 7f cf af bb 8c c5 3b 3d b8 06 bc 3c 96 58 2c 3d
       -0.0053653116 0.045842692 0.022952422 0.04207667
000090 e8 d3 83 3c 8f a8 bb ba cd 08 65 3c 73 34 a4 3c
       0.016092256 -0.0014317202 0.013979149 0.020044541
0000a0 17 97 48 bc 4a 2f 65 3c a5 cf 0b bc ee e7 d7 3b
       -0.012243054 0.013988325 -0.008533393 0.0065889275
0000b0 6d 40 c7 bc 84 ce 5f 3d 47 07 02 bd 19 26 61 bc
       -0.024322713 0.054640308 -0.03174522 -0.013741993
0000c0 1d 57 6c 3c 73 30 56 3d 1f cf b3 bb 3d fc ec 3c
       0.014425066 0.0522923 -0.0054873372 0.02892887
0000d0 b6 37 c1 3c 53 0a 47 bc 53 0f d6 3b 77 6d 82 3b
       0.023586135 -0.012148458 0.0065325885 0.0039803344
0000e0 0a 10 6d bc 98 9a 69 bc 37 93 ae 3c 98 eb 15 bd
       -0.014469156 -0.014258049 0.021310432 -0.036601633
0000f0 54 a7 22 3a 18 b0 42 3b b5 1e b7 bb 69 06 1c bc
       0.00062047434 0.002970701 -0.0055883774 -0.009523013
000100 7a 34 98 3d 99 85 ff 3c b8 e7 d5 bc af f3 f7 3c
       0.07431884 0.031191634 -0.026111469 0.030267565
000110 c1 56 41 3c c1 9d bd bc 08 b8 1d 3b 9a e2 2d bc
       0.011800469 -0.023146512 0.002406599 -0.010613108
000120 c8 8f c6 bc 53 3f 86 bb 15 b2 78 bc 7f b6 04 bd
       -0.024238482 -0.0040969043 -0.015179177 -0.032400604
000130 83 6e 2b 3c 97 b8 36 3c 54 94 9e 3a de 8e 9c 3c
       0.01046336 0.011152408 0.0012098649 0.019111093
000140 70 14 bf 3c 16 a4 0a bc c8 2e c1 3c 14 2c 4b 3c
       0.023325175 -0.008461973 0.023581877 0.012400646
000150 d6 a3 b2 bb c9 66 0f bb dc 43 97 bc 33 3f c5 3b
       -0.0054516597 -0.0021881333 -0.018464975 0.006019497
000160 cb 54 6b 3b 4a 5d 0a 3c 74 73 f7 3a e9 cf 1e bb
       0.0035908695 0.008445093 0.0018879012 -0.002423281
000170 8b ae 1f 3c 18 12 a5 3c c8 b8 7d bb 82 6f 6f 3c
       0.009746204 0.02015023 -0.0038714875 0.014613988
000180 8f e5 0f 3c e4 f8 cf bb 7c a6 53 3d a5 83 ef 3c
       0.008782758 -0.0063468087 0.051672444 0.029237578
000190 71 89 ac bc 90 53 7d 3c 5a 91 32 bb 3f e9 5f bc
       -0.02106163 0.015461817 -0.002724728 -0.01366645
0001a0 e7 50 bd bb 56 9f d0 ba a1 cb 66 3c c6 08 ac 3c
       -0.0057774666 -0.0015916626 0.014086635 0.021000277
0001b0 40 4e 61 3b 5a 6c 5a bc d5 7b c9 3c 08 f5 1e 3b
       0.0034378916 -0.013331497 0.02459518 0.0024254937
0001c0 9f bf d2 3c 89 00 c3 3c e5 0d 3f bc 9e 84 81 3b
       0.025726138 0.023803966 -0.011661028 0.003952577
0001d0 0e a8 8b bc 8a ec 8d 3c a0 13 88 3c 5d 4c c7 bb
       -0.017047908 0.017324705 0.01661092 -0.0060821013
0001e0 7e 33 53 3d b5 cc 2e bb 43 aa eb 3c c9 6b fe ba
       0.05156278 -0.0026672308 0.02876771 -0.0019410785
0001f0 0b 55 ac bc 1b 3d ce 3c bc f7 fe 3b 6f bb 7c 3c
       -0.021036645 0.025175622 0.007780997 0.015425547
000200 d4 fd ab 38 60 d5 1c 3c aa 32 7b 3c 4f 11 41 3d
       8.2011946e-05 0.009572357 0.0153319035 0.047135647
000210 ee 51 0e 3d 30 14 9d 3c af 7c 31 3d bb 3d 1f bc
       0.034746103 0.019174665 0.0433318 -0.009719308
000220 07 50 1c 3b 33 1d 0f 3b 7d 1e 4f 3c fc 89 f3 3c
       0.002385141 0.0021837472 0.012641546 0.029728882
000230 ef 56 57 3c 50 07 96 3c 30 6d 88 ba 3b 37 97 bb
       0.013143285 0.018314034 -0.0010408517 -0.0046147383
000240 48 c2 74 3c cb 92 a7 3b d4 b6 bb 3c 00 92 05 bd
       0.014938898 0.0051139346 0.022914328 -0.03260994
000250 77 70 da bb c9 c1 5a bc 5b 06 5d 3b 04 7d d3 bb
       -0.006666239 -0.013351866 0.0033725712 -0.006454112
000260 29 46 bf bb 16 b8 92 bc fc 1b 97 bc 5d 00 c1 bb
       -0.005837221 -0.017910045 -0.018445961 -0.005889936
000270 f5 3d 18 3d a7 b9 c3 bc 55 a4 ed 39 73 23 55 bc
       0.03716846 -0.023892237 0.000453266 -0.01300894
000280 a6 c6 4f 3d 1e b0 1b ba 54 9a d6 ba 6a 41 f3 3c
       0.050726555 -0.0005939024 -0.0016372898 0.029694278
000290 61 c5 fb bb 6f 0f 28 3b 91 d5 b3 3c 21 85 fd bb
       -0.0076834415 0.0025643965 0.021952422 -0.0077368175
0002a0 fa 9a f6 3c 75 9b d0 3c 26 7e b4 bc 68 84 55 b8
       0.030103195 0.025464753 -0.022032809 -5.090647e-05
0002b0 3d d9 cd 3b 07 d4 8c ba 1f 5c 9c bb cb c4 c5 3c
       0.0062820003 -0.0010744341 -0.004771724 0.02414169
0002c0 e6 38 1e bd 1a 78 20 3c a7 2d 31 bd 03 35 ad bb
       -0.03862848 0.009794259 -0.043256428 -0.0052858605
0002d0 dd 65 85 3c 7d 02 97 3c d6 8e 19 3d ad 9e 08 3d
       0.016283924 0.018433804 0.037489735 0.03335445
0002e0 be 2b aa 3b 01 ab 4a 3c 7a c7 ab bc 24 40 8b 3c
       0.0051932028 0.012369872 -0.020969141 0.016998358
0002f0 fa 38 23 3d 5e 03 8a 3b e8 55 c6 bc 71 c2 56 bd
       0.03984926 0.004211827 -0.024210885 -0.052431528
000300 70 e4 47 bc 90 f3 b4 3b b7 4c 9d 3b ef 73 86 bc
       -0.01220046 0.005522199 0.004800405 -0.016412703
000310 c3 12 85 bc d0 95 0b 3c 65 3e 85 bb 7b 1e 96 bc
       -0.016244298 0.008519605 -0.004066276 -0.018325081
000320 29 a9 73 bb ca f2 07 bd 32 2c 47 bc 6c 81 d9 39
       -0.0037179685 -0.033190526 -0.012156533 0.00041485892
000330 bf fe f0 bc 86 0d 38 3c a2 d7 2f bc 1e d7 cd 3b
       -0.029418347 0.011233693 -0.010732563 0.0062817475
000340 83 1f 2b 3d 61 a5 16 bb 32 df 00 bd 3d e3 fa 3a
       0.0417781 -0.0022986757 -0.031462856 0.0019141209
000350 77 44 28 bc e2 b2 59 bc dd ac eb 3c 90 4e 1e bd
       -0.01027023 -0.013287278 0.028768951 -0.03864914
000360 58 45 a5 3a 17 ff 84 bc c8 fb a1 3c 4a 12 67 ba
       0.0012609167 -0.016234918 0.019773379 -0.0008814676
000370 25 d8 73 bc 3f c2 43 bc 77 e5 1a 3b 9c 2d ac 3b
       -0.014883076 -0.011948167 0.0023635307 0.0052544605
000380 89 d1 5f 3c 47 3f 7c 3c b7 18 19 3c ee 2c 41 3c
       0.013660797 0.015395946 0.009344271 0.011790497
000390 5b 3c 02 3d 7d 4a 52 ba bf 26 cc bc 67 be 97 3c
       0.03179584 -0.0008021964 -0.02492082 0.018523408
0003a0 8b 96 12 bc 70 f5 d6 3c
       -0.008947025 0.02624008

trunk.0.expand.norm.running_mean f4 [234]
000000 4b 48 bc bc 5c 8c 97 3c 35 01 83 bc 22 59 66 ba
       -0.02298369 0.018499546 -0.015991786 -0.00087870855
000010 52 b0 83 3c cf 98 61 bc 1f 7a 77 bb 78 38 3c 3c
       0.016075287 -0.013769343 -0.0037761999 0.011488073
000020 6a b1 80 bc 3a c8 04 bd 93 09 56 bc 9e bd 17 bd
       -0.015709598 -0.032417513 -0.013063806 -0.037046067
000030 b5 cf ec 3c 88 03 55 3c d6 a3 b2 3c 34 aa 2e 3c
       0.028907636 0.01300133 0.021806639 0.010660697
000040 d7 9b 9a bc bb 56 69 bc 95 29 8e 3c 58 14 a6 bc
       -0.018873138 -0.01424187 0.017353812 -0.020273373
000050 3f 7c 63 3c 22 2d 9e bc 11 9c 8a 3c 18 bc b2 39
       0.013884603 -0.01930863 0.016920121 0.00034090946
000060 89 3b 13 3c f9 1e bf 3b 47 08 b3 3b 72 1b e0 3b
       0.008986362 0.0058325497 0.005463633 0.0068392092
000070 2b 7c 63 3c 6f fd a4 bc 6f da ba 3b ae f3 5b 3c
       0.013884584 -0.020140378 0.005702309 0.013424797
000080 44 71 6b bc 90 81 18 3d 39 bf 87 bb 87 e1 81 3c
       -0.014370266 0.037232935 -0.0041426686 0.01585461
000090 9b 0d 25 bd f0 d3 88 3c 49 42 8f bb c8 3a f0 bc
       -0.04029618 0.016702622 -0.0043719155 -0.029324904
0000a0 66 75 be bb e3 7d 9c bc 68 ec d4 bc a2 be 5f 3c
       -0.005812335 -0.019102996 -0.025991634 0.01365629
0000b0 34 1e 9c 3b 2a 46 d8 39 aa 5b 11 3d 44 2c 57 3c
       0.0047643427 0.00041251007 0.03548781 0.013133112
0000c0 88 59 8a 3c 71 2b 22 bc 0e 59 0d 3c 22 86 2b 3c
       0.016888395 -0.009898053 0.008627189 0.0104689915
0000d0 23 21 d9 3b e0 4e 2d bc ec 58 b8 3b ee 53 ba 3c
       0.0066262647 -0.010577887 0.0056258347 0.022745099
0000e0 95 f7 ab 3b 7c cc 4b 3c 3e d6 ab bc 66 ce 77 bc
       0.00524802 0.01243889 -0.020976182 -0.015124893
0000f0 8a c8 85 bc 41 56 95 bc fd e8 84 bb fe a5 2d bd
       -0.016330976 -0.018229606 -0.0040560947 -0.04239463
000100 35 08 b3 bc 53 78 b0 bb a4 fb db 3c 39 c6 fa bb
       -0.0218545 -0.0053854375 0.02685339 -0.0076530245
000110 c6 71 34 ba 7e 76 a9 bb 47 bb a7 3b 31 3f 5b 3c
       -0.00068834086 -0.005171596 0.0051187607 0.013381765
000120 56 e4 d8 3b ca 84 5c 3c a7 d1 2d 3c f8 e1 b7 3c
       0.0066190166 0.013459394 0.010609067 0.022446617
000130 a1 1b 9c 3b 5b 6a 80 bc ca 7b 9c 3c a4 80 17 bc
       0.004764036 -0.015675714 0.019101996 -0.009246979
000140 16 61 a2 3b 27 40 85 3b 5a 9d 4d 3b 3e ed c2 3c
       0.004955421 0.0040664854 0.0031374306 0.023794767
000150 e2 bf 85 bb d4 4f 32 3c 1b 64 09 3c 31 f4 94 3a
       -0.004081712 0.01088329 0.008385683 0.0011364279
000160 3d d7 41 3b e1 b9 2e ba a8 44 ca 3b 90 da fe 3b
       0.0029577755 -0.00066652714 0.0061727352 0.0077775195
000170 fa 48 b1 bb 4c 22 a7 b9 8d 01 25 3c ca b8 77 bc
       -0.005410311 -0.00031878275 0.0100711705 -0.015119741
000180 75 7b 0c bd af ef 17 3c 21 6a 16 3b 9a 16 c8 3c
       -0.034297425 0.009273454 0.0022951441 0.02442484
000190 c9 9d 9c 3c e2 7d a6 3b 17 dc c6 bb 53 85 ec bb
       0.019118207 0.0050809244 -0.006068717 -0.007218042
0001a0 ac bf cc 3c 30 23 68 bb 2d 51 a0 3b d7 62 a8 3c
       0.02499374 -0.0035421364 0.0048924894 0.020554943
0001b0 08 12 78 bc c9 df 0a bd b2 b5 58 bc 6e 50 4d bb
       -0.015141018 -0.033904824 -0.013226913 -0.0031328457
0001c0 38 0a 08 bd 72 83 31 bd 40 57 85 3b 7e c8 0c bc
       -0.03321287 -0.043338247 0.004069239 -0.008592723
0001d0 92 6a b1 3b 4f ec 27 3c 8c d8 40 bc d4 b9 dc 3b
       0.0054143155 0.010249211 -0.011770379 0.0067360196
0001e0 ee d5 96 3b 80 30 19 bd d1 5e 86 3c b6 af 86 bc
       0.004603139 -0.03739977 0.016402634 -0.016441207
0001f0 7a 46 e7 3b 14 da db 3c 21 f2 60 3c 64 50 1d 3c
       0.007057962 0.026837386 0.013729603 0.009601686
000200 a6 fa ea b9 1f 9d 3e bc 68 b0 b0 ba e5 19 82 3c
       -0.00044818706 -0.01163414 -0.0013480308 0.015881488
000210 96 86 b3 3c 5b 53 c7 3c b4 b7 28 bc 10 97 05 ba
       0.021914762 0.02433174 -0.0102977045 -0.00050960574
000220 00 e2 0b 3b 14 5c 88 bc 67 fb 37 bc 35 6d 3e 3a
       0.0021344423 -0.016645469 -0.011229373 0.0007264198
000230 6e 3c 98 3b 98 63 00 bc 48 77 8c 3c 10 0b 16 bb
       0.0046458757 -0.007836245 0.017146721 -0.0022894777
000240 88 19 27 3d 55 69 d5 ba b5 a2 8d 3b 07 e0 a0 3c
       0.040795833 -0.0016282002 0.0043223747 0.019638075
000250 6b de 96 bc ac 79 72 3c ec c2 2c bc c0 25 29 3d
       -0.018416604 0.014799517 -0.01054452 0.041295767
000260 10 a3 89 3b 2f 2e f3 bb c1 60 6e 3b 32 9b 45 bc
       0.004200347 -0.007421277 0.0036373588 -0.012060927
000270 15 da 38 bc 7c 1e 57 bc cb a8 06 bc 91 f9 7c 3a
       -0.011282464 -0.013129827 -0.008218954 0.00096502254
000280 7b 49 ab bc 3e c6 8c 3c 98 25 9c 3c b9 56 25 bc
       -0.020909062 0.017184373 0.019060895 -0.010091477
000290 bf 68 cc bb d8 e5 2e 3a d5 dc 19 3b c1 f8 bc bc
       -0.0062380726 0.00066718226 0.0023477573 -0.023067834
0002a0 ec 6c 43 bc 86 3a 0e 3c 24 a2 55 bc 4a 75 00 bd
       -0.0119278245 0.008680945 -0.013039146 -0.031361856
0002b0 4d db 1b 3b 14 b6 6d bc ca db d5 3b 61 df 05 bd
       0.0023781836 -0.014508743 0.006526445 -0.032683734
0002c0 fe 00 92 bc 60 12 6d 3c da c6 65 bb 59 cf e6 3c
       -0.017822739 0.014469713 -0.0035061152 0.028175043
0002d0 7d 76 42 bc 1e a6 92 3b b8 8a 86 3c 52 d1 ab 3c
       -0.01186907 0.004475369 0.016423568 0.020973835
0002e0 2e 7c 0f bc ff ef 06 bc 00 0b 35 bc 6a 8f 99 bc
       -0.008757634 -0.00823593 -0.011049986 -0.018745143
0002f0 1a 66 b0 bc 17 3c 09 3c 1f 86 e7 3c 45 90 5a 3c
       -0.02153306 0.008376143 0.028262196 0.013340061
000300 be 68 c2 3c 7a f8 82 3c 85 f5 bd bb be d2 54 bc
       0.023731586 0.015987623 -0.0057970905 -0.012989698
000310 53 08 98 bc 83 5f 96 3b e2 42 94 3c 77 71 7f bb
       -0.018558657 0.0045890226 0.018098298 -0.0038977542
000320 15 17 85 3c de 1a 4b 3c 89 88 96 bc 7d 04 68 bc
       0.016246358 0.012396542 -0.018375652 -0.014161226
000330 b0 5b 02 bc 1d f9 ac bb 89 ea 63 3c 05 d2 a5 bc
       -0.00795643 -0.00527872 0.013910898 -0.020241747
000340 95 9a 80 3c 46 22 1c bb 2f 8a 5b bc 88 43 14 3c
       0.01569871 -0.002382414 -0.013399645 0.009049304
000350 f5 bd 98 3c b4 8a 3b bc b3 41 05 3c 8d 60 a3 ba
       0.018645266 -0.011446644 0.00813334 -0.0012464687
000360 4e a9 d1 bb 81 5d 82 3c 6a 2e 21 3b c6 ad 32 3c
       -0.0063983565 0.015913727 0.0024594315 0.010905689
000370 70 7a da 3a a5 5f bd bc 94 3e c9 bc 06 76 2c bc
       0.0016668569 -0.023116896 -0.024565972 -0.010526186
000380 b8 ff 74 bc 3b f1 b7 3c 06 f5 45 3c 1f 17 1e 3c
       -0.014953546 0.022453895 0.012082344 0.009649067
000390 81 b9 bd 3c 60 62 b5 3b a7 c3 32 3b 20 71 a7 3c
       0.023159744 0.005535409 0.0027277262 0.020439684
0003a0 a9 50 ae 39 92 7b be bb
       0.00033247963 -0.0058130706

trunk.0.expand.norm.running_var f4 [234]
000000 6d ec 8e 3f 31 03 98 3f 4b d8 7e 3e 71 be 34 3f
       1.1165901 1.1875974 0.24887197 0.7060309
000010 45 b7 72 3e ac 9a ae 3e 74 58 68 3e 89 d7 31 3f
       0.23702724 0.3410238 0.22689992 0.69469506
000020 ce 7f d0 3e af 4a 48 3e 1d be a0 3f e6 39 35 3e
       0.40722507 0.1955974 1.2558018 0.17697868
000030 45 7c 99 3e a5 9d 84 3e e5 76 16 3f 6e 50 5b 3f
       0.29977623 0.25901523 0.5877517 0.856696
000040 47 13 c3 3e 68 48 0e 3f fc db 3e 40 05 1a e1 3e
       0.38100645 0.55579233 2.9821768 0.43965164
000050 26 c1 28 3f 77 13 ed 3d 28 86 cd 3e 25 67 16 3f
       0.6591972 0.11575978 0.40141416 0.58751136
000060 97 db a6 3e aa 56 c6 3e 96 c3 09 3f 81 01 98 3e
       0.3258941 0.38737994 0.53814065 0.29688647
000070 0e 1e 9b 3e 3a a9 85 3f ac 4d 7d 3e d9 9b a0 3e
       0.30296367 1.0442269 0.2473666 0.31368902
000080 30 68 20 3f ee 15 5a 3f 2f 1b 64 3f fe c9 1c 3f
       0.6265898 0.8518971 0.8910398 0.61245716
000090 d7 ae a3 3e ad c3 91 3e 91 93 27 3f e7 b7 88 3e
       0.3196933 0.284696 0.65459543 0.26702806
0000a0 37 97 89 3f 0a 1c 74 3e f0 f6 90 3e 25 f0 3c 3f
       1.0749272 0.23838821 0.28313398 0.7380393
0000b0 cc c2 46 3e 72 00 ad 3e 8f 5a df 3e c7 43 72 3f
       0.19410247 0.33789402 0.43623778 0.9463467
0000c0 2f 62 aa 3e ad ed 4e 3e 52 a6 1b 3f 83 c7 dc 3e
       0.33278033 0.20207854 0.6080066 0.43120965
0000d0 27 3a 86 3e 88 82 cf 3e eb a2 07 3f bd 6a 71 3e
       0.26216242 0.40529275 0.5298297 0.23575874
0000e0 24 99 e7 3e e6 a9 85 3e dc 5c 4b 3e 84 66 de 3e
       0.45234025 0.26106185 0.19859642 0.43437588
0000f0 12 dd 8e 3f 7f f2 9f 3e 6f 69 96 3e 99 6b d2 3e
       1.1161215 0.31239697 0.29377314 0.41097715
000100 05 9c 19 3e 4e 01 96 3e 06 cd c8 3f 65 b2 99 3e
       0.15000923 0.2929787 1.5687568 0.30018917
000110 f7 e7 92 3e 9a 68 89 3e 7f 96 61 3e 2d 25 6d 3f
       0.286926 0.26837617 0.22030066 0.9263485
000120 52 85 0e 3f a5 22 67 3e 43 ac b6 3e 85 7f f0 3e
       0.5567218 0.2257181 0.356783 0.4697229
000130 78 f2 a3 3e 98 04 d4 3e 56 40 82 3e 7b ed 87 3f
       0.32020926 0.41409755 0.2543971 1.0619348
000140 71 9e 94 3e f4 25 91 3e 79 d3 41 3f aa cc 11 3f
       0.2902713 0.28349268 0.75713307 0.5695292
000150 39 37 eb 3e 5c f0 c9 3e ac 7e 68 3e 83 d8 94 3f
       0.4594057 0.39441192 0.22704571 1.1628574
000160 75 f7 bf 3e c4 8c cb 3e 7c 53 14 3f fc 5a 81 3f
       0.37493482 0.39755833 0.5793989 1.0105891
000170 90 15 8b 3e 16 32 68 3f 6a 62 56 3e 14 03 d6 3e
       0.27164888 0.90701425 0.2093598 0.41799223
000180 62 75 9e 3f b8 5e 59 3f de 4d af 3e 46 65 73 3e
       1.2379572 0.84910154 0.34239095 0.23769102
000190 96 85 59 3f 1c 31 28 3f 14 68 c5 3f 9c cd 8b 3f
       0.8496946 0.65699935 1.5422387 1.0922122
0001a0 17 cd f0 3e de 20 49 3e 22 52 2d 3f 57 9d 61 3e
       0.4703147 0.19641444 0.6770345 0.22032677
0001b0 fa 56 91 3e 27 5e 92 3e 8d b8 2f 3f 5f 07 e1 3d
       0.2838667 0.28587458 0.6864098 0.10987734
0001c0 fe 61 94 3e 1d da 89 3e eb 82 6b 3e c9 b1 16 3f
       0.28981012 0.2692422 0.2299916 0.5886503
0001d0 fc b2 9b 3e 79 bb a3 3e c8 67 a6 3e ad 3c 7e 3f
       0.30409992 0.31978968 0.32501054 0.99311334
0001e0 3d 1e 5b 3e 72 1c 8b 3e e5 96 8e 3e bc 71 c7 3e
       0.21398254 0.2717014 0.27849498 0.3895396
0001f0 f6 78 b4 3f 35 02 3a 3e e2 37 44 3f 2a 5d c0 3d
       1.4099414 0.18164904 0.7664777 0.0939277
000200 f8 26 bd 3d cf aa b1 3e 4b 95 1d 3e 77 ce 63 3e
       0.09235948 0.3470063 0.15388982 0.22246729
000210 b4 b2 b3 3e 8d 43 90 3e 8d 3a 87 3e 6b 1e 21 3f
       0.35097277 0.28176537 0.26411858 0.6293704
000220 49 60 50 3e 3e 59 bf 3e a2 a0 9c 3f 55 79 74 3e
       0.2034923 0.37372774 1.2236521 0.2387441
000230 7d 14 fb 3d 45 92 98 3f 9c 6a 4c 40 2e 4e d8 3e
       0.12259767 1.1919638 3.194007 0.42247146
000240 06 27 36 3e 01 33 1e 3e 0c f4 92 3e 63 8b 69 3e
       0.17788324 0.15449144 0.28701818 0.22807078
000250 72 66 b9 3e fa 40 d4 3e 5b 76 3b 3f ee 77 9d 3e
       0.36210972 0.41455823 0.7322747 0.30755562
000260 5a 6b 0b 3f f5 2e c8 3e 68 58 16 3f e1 7e 21 3f
       0.5446068 0.39098325 0.5872865 0.63084227
000270 c5 b3 db 3d 2d a8 95 3f d1 2b da 3e 96 96 ac 3f
       0.10727648 1.1691948 0.42611554 1.3483455
000280 cb bd b4 3e 8d f2 b9 3d 90 f1 81 3e 54 ac 12 3e
       0.3530105 0.09079466 0.2537961 0.1432355
000290 3e 10 94 3e 18 0e 67 3f 9e 32 4d 3e 74 7b bf 3e
       0.28918642 0.9025588 0.2003884 0.37398875
0002a0 1b 93 a9 3e ad fa ad 3e 34 8d 25 3f e9 36 ff 3e
       0.33120045 0.33980313 0.64668584 0.4984658
0002b0 35 9f 84 3f e3 49 39 40 15 f9 87 3f 18 44 30 3e
       1.0361086 2.8951347 1.0622889 0.17213476
0002c0 51 95 88 3e 5d d8 02 3f 2b 0d 2e 3e 26 73 28 3e
       0.2667642 0.51111394 0.1699721 0.16450176
0002d0 e3 51 cf 3f 36 c3 c8 3e 89 b9 88 3e db eb 0c 3f
       1.6196865 0.39211434 0.26704052 0.55047387
0002e0 74 43 63 3f b2 6d 75 3f e3 0f b2 3e 01 50 5e 3f
       0.887748 0.95870507 0.34777746 0.86840826
0002f0 31 4f 39 3e 49 6e d1 3e 42 e3 9f 3f af 96 8b 3e
       0.18096615 0.40904453 1.2491229 0.272634
000300 59 00 26 3f f6 97 0d 3f 67 f1 f8 3e fa a7 cb 3e
       0.6484428 0.5531 0.48621675 0.39776593
000310 16 ba 32 3f 0c d2 d5 3e cb 0c 9e 3e 74 9b 54 3f
       0.69815195 0.41761816 0.30869135 0.830497
000320 92 d4 9a 3e 8f d9 e0 3e ba 8b 7c 3f a2 9b a5 3e
       0.30240303 0.43915984 0.98650706 0.323453
000330 05 d1 8a 3e 4d 3d 15 3e 6a 77 c4 3e c8 ab 48 3e
       0.27112594 0.14574166 0.38372356 0.1959678
000340 76 91 c0 3e 94 f4 03 3e 54 3f b8 3e 68 bb 65 3f
       0.37610978 0.12886268 0.35985816 0.89739084
000350 d0 40 16 3e 96 a4 cb 3e 50 53 00 3e 24 c5 ca 3e
       0.14673162 0.39774007 0.12531781 0.3960353
000360 83 1b 93 3e bb 89 50 3f 69 85 c6 3e e9 04 50 3f
       0.28731927 0.8146016 0.3877366 0.8125749
000370 55 18 c5 3f 1b 6a a4 3f 73 0d 7a 3f b8 54 7f 3e
       1.539805 1.2844881 0.9767677 0.24934661
000380 83 88 eb 3e 5e 2d 85 3e d1 6f 7b 3e cd 22 a2 3f
       0.46002588 0.26011175 0.24554373 1.266687
000390 d5 54 87 3e 87 57 a5 3e c0 3e e2 3e 50 75 7a 3f
       0.2643191 0.3229334 0.441885 0.97835255
0003a0 fa f7 16 3f df 6b 42 3f
       0.5897213 0.7594585

trunk.0.depthwise.linear.weight f4 [2, 2]
000000 ac 73 46 bf 49 3e 30 bd a7 a4 6c be c5 f2 6d 3d
       -0.7752025 -0.04302815 -0.23109685 0.05809285
